{
  "nodes": [
    {
      "op": "null", 
      "param": {}, 
      "name": "data/0", 
      "inputs": [], 
      "backward_source_id": -1
    }, 
    {
      "op": "null", 
      "param": {}, 
      "name": "embed_weight", 
      "inputs": [], 
      "backward_source_id": -1
    }, 
    {
      "op": "Embedding", 
      "param": {
        "input_dim": "84", 
        "output_dim": "256"
      }, 
      "name": "t0_embed", 
      "inputs": [[0, 0], [1, 0]], 
      "backward_source_id": -1
    }, 
    {
      "op": "null", 
      "param": {}, 
      "name": "l0_i2h_weight", 
      "inputs": [], 
      "backward_source_id": -1
    }, 
    {
      "op": "null", 
      "param": {}, 
      "name": "l0_i2h_bias", 
      "inputs": [], 
      "backward_source_id": -1
    }, 
    {
      "op": "FullyConnected", 
      "param": {
        "no_bias": "False", 
        "num_hidden": "2048"
      }, 
      "name": "t0_l0_i2h", 
      "inputs": [[2, 0], [3, 0], [4, 0]], 
      "backward_source_id": -1
    }, 
    {
      "op": "null", 
      "param": {}, 
      "name": "l0_init_h", 
      "inputs": [], 
      "backward_source_id": -1
    }, 
    {
      "op": "null", 
      "param": {}, 
      "name": "l0_h2h_weight", 
      "inputs": [], 
      "backward_source_id": -1
    }, 
    {
      "op": "null", 
      "param": {}, 
      "name": "l0_h2h_bias", 
      "inputs": [], 
      "backward_source_id": -1
    }, 
    {
      "op": "FullyConnected", 
      "param": {
        "no_bias": "False", 
        "num_hidden": "2048"
      }, 
      "name": "t0_l0_h2h", 
      "inputs": [[6, 0], [7, 0], [8, 0]], 
      "backward_source_id": -1
    }, 
    {
      "op": "_Plus", 
      "param": {}, 
      "name": "_plus0", 
      "inputs": [[5, 0], [9, 0]], 
      "backward_source_id": -1
    }, 
    {
      "op": "SliceChannel", 
      "param": {
        "axis": "1", 
        "num_outputs": "4", 
        "squeeze_axis": "False"
      }, 
      "name": "t0_l0_slice", 
      "inputs": [[10, 0]], 
      "backward_source_id": -1
    }, 
    {
      "op": "Activation", 
      "param": {"act_type": "sigmoid"}, 
      "name": "activation3", 
      "inputs": [[11, 3]], 
      "backward_source_id": -1
    }, 
    {
      "op": "Activation", 
      "param": {"act_type": "sigmoid"}, 
      "name": "activation2", 
      "inputs": [[11, 2]], 
      "backward_source_id": -1
    }, 
    {
      "op": "null", 
      "param": {}, 
      "name": "l0_init_c", 
      "inputs": [], 
      "backward_source_id": -1
    }, 
    {
      "op": "_Mul", 
      "param": {}, 
      "name": "_mul0", 
      "inputs": [[13, 0], [14, 0]], 
      "backward_source_id": -1
    }, 
    {
      "op": "Activation", 
      "param": {"act_type": "sigmoid"}, 
      "name": "activation0", 
      "inputs": [[11, 0]], 
      "backward_source_id": -1
    }, 
    {
      "op": "Activation", 
      "param": {"act_type": "tanh"}, 
      "name": "activation1", 
      "inputs": [[11, 1]], 
      "backward_source_id": -1
    }, 
    {
      "op": "_Mul", 
      "param": {}, 
      "name": "_mul1", 
      "inputs": [[16, 0], [17, 0]], 
      "backward_source_id": -1
    }, 
    {
      "op": "_Plus", 
      "param": {}, 
      "name": "_plus1", 
      "inputs": [[15, 0], [18, 0]], 
      "backward_source_id": -1
    }, 
    {
      "op": "Activation", 
      "param": {"act_type": "tanh"}, 
      "name": "activation4", 
      "inputs": [[19, 0]], 
      "backward_source_id": -1
    }, 
    {
      "op": "_Mul", 
      "param": {}, 
      "name": "_mul2", 
      "inputs": [[12, 0], [20, 0]], 
      "backward_source_id": -1
    }, 
    {
      "op": "Dropout", 
      "param": {"p": "0.2"}, 
      "name": "dropout0", 
      "inputs": [[21, 0]], 
      "backward_source_id": -1
    }, 
    {
      "op": "null", 
      "param": {}, 
      "name": "l1_i2h_weight", 
      "inputs": [], 
      "backward_source_id": -1
    }, 
    {
      "op": "null", 
      "param": {}, 
      "name": "l1_i2h_bias", 
      "inputs": [], 
      "backward_source_id": -1
    }, 
    {
      "op": "FullyConnected", 
      "param": {
        "no_bias": "False", 
        "num_hidden": "2048"
      }, 
      "name": "t0_l1_i2h", 
      "inputs": [[22, 0], [23, 0], [24, 0]], 
      "backward_source_id": -1
    }, 
    {
      "op": "null", 
      "param": {}, 
      "name": "l1_init_h", 
      "inputs": [], 
      "backward_source_id": -1
    }, 
    {
      "op": "null", 
      "param": {}, 
      "name": "l1_h2h_weight", 
      "inputs": [], 
      "backward_source_id": -1
    }, 
    {
      "op": "null", 
      "param": {}, 
      "name": "l1_h2h_bias", 
      "inputs": [], 
      "backward_source_id": -1
    }, 
    {
      "op": "FullyConnected", 
      "param": {
        "no_bias": "False", 
        "num_hidden": "2048"
      }, 
      "name": "t0_l1_h2h", 
      "inputs": [[26, 0], [27, 0], [28, 0]], 
      "backward_source_id": -1
    }, 
    {
      "op": "_Plus", 
      "param": {}, 
      "name": "_plus2", 
      "inputs": [[25, 0], [29, 0]], 
      "backward_source_id": -1
    }, 
    {
      "op": "SliceChannel", 
      "param": {
        "axis": "1", 
        "num_outputs": "4", 
        "squeeze_axis": "False"
      }, 
      "name": "t0_l1_slice", 
      "inputs": [[30, 0]], 
      "backward_source_id": -1
    }, 
    {
      "op": "Activation", 
      "param": {"act_type": "sigmoid"}, 
      "name": "activation8", 
      "inputs": [[31, 3]], 
      "backward_source_id": -1
    }, 
    {
      "op": "Activation", 
      "param": {"act_type": "sigmoid"}, 
      "name": "activation7", 
      "inputs": [[31, 2]], 
      "backward_source_id": -1
    }, 
    {
      "op": "null", 
      "param": {}, 
      "name": "l1_init_c", 
      "inputs": [], 
      "backward_source_id": -1
    }, 
    {
      "op": "_Mul", 
      "param": {}, 
      "name": "_mul3", 
      "inputs": [[33, 0], [34, 0]], 
      "backward_source_id": -1
    }, 
    {
      "op": "Activation", 
      "param": {"act_type": "sigmoid"}, 
      "name": "activation5", 
      "inputs": [[31, 0]], 
      "backward_source_id": -1
    }, 
    {
      "op": "Activation", 
      "param": {"act_type": "tanh"}, 
      "name": "activation6", 
      "inputs": [[31, 1]], 
      "backward_source_id": -1
    }, 
    {
      "op": "_Mul", 
      "param": {}, 
      "name": "_mul4", 
      "inputs": [[36, 0], [37, 0]], 
      "backward_source_id": -1
    }, 
    {
      "op": "_Plus", 
      "param": {}, 
      "name": "_plus3", 
      "inputs": [[35, 0], [38, 0]], 
      "backward_source_id": -1
    }, 
    {
      "op": "Activation", 
      "param": {"act_type": "tanh"}, 
      "name": "activation9", 
      "inputs": [[39, 0]], 
      "backward_source_id": -1
    }, 
    {
      "op": "_Mul", 
      "param": {}, 
      "name": "_mul5", 
      "inputs": [[32, 0], [40, 0]], 
      "backward_source_id": -1
    }, 
    {
      "op": "Dropout", 
      "param": {"p": "0.2"}, 
      "name": "dropout1", 
      "inputs": [[41, 0]], 
      "backward_source_id": -1
    }, 
    {
      "op": "null", 
      "param": {}, 
      "name": "l2_i2h_weight", 
      "inputs": [], 
      "backward_source_id": -1
    }, 
    {
      "op": "null", 
      "param": {}, 
      "name": "l2_i2h_bias", 
      "inputs": [], 
      "backward_source_id": -1
    }, 
    {
      "op": "FullyConnected", 
      "param": {
        "no_bias": "False", 
        "num_hidden": "2048"
      }, 
      "name": "t0_l2_i2h", 
      "inputs": [[42, 0], [43, 0], [44, 0]], 
      "backward_source_id": -1
    }, 
    {
      "op": "null", 
      "param": {}, 
      "name": "l2_init_h", 
      "inputs": [], 
      "backward_source_id": -1
    }, 
    {
      "op": "null", 
      "param": {}, 
      "name": "l2_h2h_weight", 
      "inputs": [], 
      "backward_source_id": -1
    }, 
    {
      "op": "null", 
      "param": {}, 
      "name": "l2_h2h_bias", 
      "inputs": [], 
      "backward_source_id": -1
    }, 
    {
      "op": "FullyConnected", 
      "param": {
        "no_bias": "False", 
        "num_hidden": "2048"
      }, 
      "name": "t0_l2_h2h", 
      "inputs": [[46, 0], [47, 0], [48, 0]], 
      "backward_source_id": -1
    }, 
    {
      "op": "_Plus", 
      "param": {}, 
      "name": "_plus4", 
      "inputs": [[45, 0], [49, 0]], 
      "backward_source_id": -1
    }, 
    {
      "op": "SliceChannel", 
      "param": {
        "axis": "1", 
        "num_outputs": "4", 
        "squeeze_axis": "False"
      }, 
      "name": "t0_l2_slice", 
      "inputs": [[50, 0]], 
      "backward_source_id": -1
    }, 
    {
      "op": "Activation", 
      "param": {"act_type": "sigmoid"}, 
      "name": "activation13", 
      "inputs": [[51, 3]], 
      "backward_source_id": -1
    }, 
    {
      "op": "Activation", 
      "param": {"act_type": "sigmoid"}, 
      "name": "activation12", 
      "inputs": [[51, 2]], 
      "backward_source_id": -1
    }, 
    {
      "op": "null", 
      "param": {}, 
      "name": "l2_init_c", 
      "inputs": [], 
      "backward_source_id": -1
    }, 
    {
      "op": "_Mul", 
      "param": {}, 
      "name": "_mul6", 
      "inputs": [[53, 0], [54, 0]], 
      "backward_source_id": -1
    }, 
    {
      "op": "Activation", 
      "param": {"act_type": "sigmoid"}, 
      "name": "activation10", 
      "inputs": [[51, 0]], 
      "backward_source_id": -1
    }, 
    {
      "op": "Activation", 
      "param": {"act_type": "tanh"}, 
      "name": "activation11", 
      "inputs": [[51, 1]], 
      "backward_source_id": -1
    }, 
    {
      "op": "_Mul", 
      "param": {}, 
      "name": "_mul7", 
      "inputs": [[56, 0], [57, 0]], 
      "backward_source_id": -1
    }, 
    {
      "op": "_Plus", 
      "param": {}, 
      "name": "_plus5", 
      "inputs": [[55, 0], [58, 0]], 
      "backward_source_id": -1
    }, 
    {
      "op": "Activation", 
      "param": {"act_type": "tanh"}, 
      "name": "activation14", 
      "inputs": [[59, 0]], 
      "backward_source_id": -1
    }, 
    {
      "op": "_Mul", 
      "param": {}, 
      "name": "_mul8", 
      "inputs": [[52, 0], [60, 0]], 
      "backward_source_id": -1
    }, 
    {
      "op": "Dropout", 
      "param": {"p": "0.2"}, 
      "name": "dropout2", 
      "inputs": [[61, 0]], 
      "backward_source_id": -1
    }, 
    {
      "op": "null", 
      "param": {}, 
      "name": "cls_weight", 
      "inputs": [], 
      "backward_source_id": -1
    }, 
    {
      "op": "null", 
      "param": {}, 
      "name": "cls_bias", 
      "inputs": [], 
      "backward_source_id": -1
    }, 
    {
      "op": "FullyConnected", 
      "param": {
        "no_bias": "False", 
        "num_hidden": "84"
      }, 
      "name": "fullyconnected0", 
      "inputs": [[62, 0], [63, 0], [64, 0]], 
      "backward_source_id": -1
    }, 
    {
      "op": "null", 
      "param": {}, 
      "name": "label/0", 
      "inputs": [], 
      "backward_source_id": -1
    }, 
    {
      "op": "SoftmaxOutput", 
      "param": {
        "grad_scale": "1", 
        "ignore_label": "-1", 
        "multi_output": "False", 
        "normalization": "null", 
        "out_grad": "False", 
        "preserve_shape": "False", 
        "use_ignore": "False"
      }, 
      "name": "t0_sm", 
      "inputs": [[65, 0], [66, 0]], 
      "backward_source_id": -1
    }, 
    {
      "op": "null", 
      "param": {}, 
      "name": "data/1", 
      "inputs": [], 
      "backward_source_id": -1
    }, 
    {
      "op": "Embedding", 
      "param": {
        "input_dim": "84", 
        "output_dim": "256"
      }, 
      "name": "t1_embed", 
      "inputs": [[68, 0], [1, 0]], 
      "backward_source_id": -1
    }, 
    {
      "op": "FullyConnected", 
      "param": {
        "no_bias": "False", 
        "num_hidden": "2048"
      }, 
      "name": "t1_l0_i2h", 
      "inputs": [[69, 0], [3, 0], [4, 0]], 
      "backward_source_id": -1
    }, 
    {
      "op": "FullyConnected", 
      "param": {
        "no_bias": "False", 
        "num_hidden": "2048"
      }, 
      "name": "t1_l0_h2h", 
      "inputs": [[21, 0], [7, 0], [8, 0]], 
      "backward_source_id": -1
    }, 
    {
      "op": "_Plus", 
      "param": {}, 
      "name": "_plus6", 
      "inputs": [[70, 0], [71, 0]], 
      "backward_source_id": -1
    }, 
    {
      "op": "SliceChannel", 
      "param": {
        "axis": "1", 
        "num_outputs": "4", 
        "squeeze_axis": "False"
      }, 
      "name": "t1_l0_slice", 
      "inputs": [[72, 0]], 
      "backward_source_id": -1
    }, 
    {
      "op": "Activation", 
      "param": {"act_type": "sigmoid"}, 
      "name": "activation18", 
      "inputs": [[73, 3]], 
      "backward_source_id": -1
    }, 
    {
      "op": "Activation", 
      "param": {"act_type": "sigmoid"}, 
      "name": "activation17", 
      "inputs": [[73, 2]], 
      "backward_source_id": -1
    }, 
    {
      "op": "_Mul", 
      "param": {}, 
      "name": "_mul9", 
      "inputs": [[75, 0], [19, 0]], 
      "backward_source_id": -1
    }, 
    {
      "op": "Activation", 
      "param": {"act_type": "sigmoid"}, 
      "name": "activation15", 
      "inputs": [[73, 0]], 
      "backward_source_id": -1
    }, 
    {
      "op": "Activation", 
      "param": {"act_type": "tanh"}, 
      "name": "activation16", 
      "inputs": [[73, 1]], 
      "backward_source_id": -1
    }, 
    {
      "op": "_Mul", 
      "param": {}, 
      "name": "_mul10", 
      "inputs": [[77, 0], [78, 0]], 
      "backward_source_id": -1
    }, 
    {
      "op": "_Plus", 
      "param": {}, 
      "name": "_plus7", 
      "inputs": [[76, 0], [79, 0]], 
      "backward_source_id": -1
    }, 
    {
      "op": "Activation", 
      "param": {"act_type": "tanh"}, 
      "name": "activation19", 
      "inputs": [[80, 0]], 
      "backward_source_id": -1
    }, 
    {
      "op": "_Mul", 
      "param": {}, 
      "name": "_mul11", 
      "inputs": [[74, 0], [81, 0]], 
      "backward_source_id": -1
    }, 
    {
      "op": "Dropout", 
      "param": {"p": "0.2"}, 
      "name": "dropout3", 
      "inputs": [[82, 0]], 
      "backward_source_id": -1
    }, 
    {
      "op": "FullyConnected", 
      "param": {
        "no_bias": "False", 
        "num_hidden": "2048"
      }, 
      "name": "t1_l1_i2h", 
      "inputs": [[83, 0], [23, 0], [24, 0]], 
      "backward_source_id": -1
    }, 
    {
      "op": "FullyConnected", 
      "param": {
        "no_bias": "False", 
        "num_hidden": "2048"
      }, 
      "name": "t1_l1_h2h", 
      "inputs": [[41, 0], [27, 0], [28, 0]], 
      "backward_source_id": -1
    }, 
    {
      "op": "_Plus", 
      "param": {}, 
      "name": "_plus8", 
      "inputs": [[84, 0], [85, 0]], 
      "backward_source_id": -1
    }, 
    {
      "op": "SliceChannel", 
      "param": {
        "axis": "1", 
        "num_outputs": "4", 
        "squeeze_axis": "False"
      }, 
      "name": "t1_l1_slice", 
      "inputs": [[86, 0]], 
      "backward_source_id": -1
    }, 
    {
      "op": "Activation", 
      "param": {"act_type": "sigmoid"}, 
      "name": "activation23", 
      "inputs": [[87, 3]], 
      "backward_source_id": -1
    }, 
    {
      "op": "Activation", 
      "param": {"act_type": "sigmoid"}, 
      "name": "activation22", 
      "inputs": [[87, 2]], 
      "backward_source_id": -1
    }, 
    {
      "op": "_Mul", 
      "param": {}, 
      "name": "_mul12", 
      "inputs": [[89, 0], [39, 0]], 
      "backward_source_id": -1
    }, 
    {
      "op": "Activation", 
      "param": {"act_type": "sigmoid"}, 
      "name": "activation20", 
      "inputs": [[87, 0]], 
      "backward_source_id": -1
    }, 
    {
      "op": "Activation", 
      "param": {"act_type": "tanh"}, 
      "name": "activation21", 
      "inputs": [[87, 1]], 
      "backward_source_id": -1
    }, 
    {
      "op": "_Mul", 
      "param": {}, 
      "name": "_mul13", 
      "inputs": [[91, 0], [92, 0]], 
      "backward_source_id": -1
    }, 
    {
      "op": "_Plus", 
      "param": {}, 
      "name": "_plus9", 
      "inputs": [[90, 0], [93, 0]], 
      "backward_source_id": -1
    }, 
    {
      "op": "Activation", 
      "param": {"act_type": "tanh"}, 
      "name": "activation24", 
      "inputs": [[94, 0]], 
      "backward_source_id": -1
    }, 
    {
      "op": "_Mul", 
      "param": {}, 
      "name": "_mul14", 
      "inputs": [[88, 0], [95, 0]], 
      "backward_source_id": -1
    }, 
    {
      "op": "Dropout", 
      "param": {"p": "0.2"}, 
      "name": "dropout4", 
      "inputs": [[96, 0]], 
      "backward_source_id": -1
    }, 
    {
      "op": "FullyConnected", 
      "param": {
        "no_bias": "False", 
        "num_hidden": "2048"
      }, 
      "name": "t1_l2_i2h", 
      "inputs": [[97, 0], [43, 0], [44, 0]], 
      "backward_source_id": -1
    }, 
    {
      "op": "FullyConnected", 
      "param": {
        "no_bias": "False", 
        "num_hidden": "2048"
      }, 
      "name": "t1_l2_h2h", 
      "inputs": [[61, 0], [47, 0], [48, 0]], 
      "backward_source_id": -1
    }, 
    {
      "op": "_Plus", 
      "param": {}, 
      "name": "_plus10", 
      "inputs": [[98, 0], [99, 0]], 
      "backward_source_id": -1
    }, 
    {
      "op": "SliceChannel", 
      "param": {
        "axis": "1", 
        "num_outputs": "4", 
        "squeeze_axis": "False"
      }, 
      "name": "t1_l2_slice", 
      "inputs": [[100, 0]], 
      "backward_source_id": -1
    }, 
    {
      "op": "Activation", 
      "param": {"act_type": "sigmoid"}, 
      "name": "activation28", 
      "inputs": [[101, 3]], 
      "backward_source_id": -1
    }, 
    {
      "op": "Activation", 
      "param": {"act_type": "sigmoid"}, 
      "name": "activation27", 
      "inputs": [[101, 2]], 
      "backward_source_id": -1
    }, 
    {
      "op": "_Mul", 
      "param": {}, 
      "name": "_mul15", 
      "inputs": [[103, 0], [59, 0]], 
      "backward_source_id": -1
    }, 
    {
      "op": "Activation", 
      "param": {"act_type": "sigmoid"}, 
      "name": "activation25", 
      "inputs": [[101, 0]], 
      "backward_source_id": -1
    }, 
    {
      "op": "Activation", 
      "param": {"act_type": "tanh"}, 
      "name": "activation26", 
      "inputs": [[101, 1]], 
      "backward_source_id": -1
    }, 
    {
      "op": "_Mul", 
      "param": {}, 
      "name": "_mul16", 
      "inputs": [[105, 0], [106, 0]], 
      "backward_source_id": -1
    }, 
    {
      "op": "_Plus", 
      "param": {}, 
      "name": "_plus11", 
      "inputs": [[104, 0], [107, 0]], 
      "backward_source_id": -1
    }, 
    {
      "op": "Activation", 
      "param": {"act_type": "tanh"}, 
      "name": "activation29", 
      "inputs": [[108, 0]], 
      "backward_source_id": -1
    }, 
    {
      "op": "_Mul", 
      "param": {}, 
      "name": "_mul17", 
      "inputs": [[102, 0], [109, 0]], 
      "backward_source_id": -1
    }, 
    {
      "op": "Dropout", 
      "param": {"p": "0.2"}, 
      "name": "dropout5", 
      "inputs": [[110, 0]], 
      "backward_source_id": -1
    }, 
    {
      "op": "FullyConnected", 
      "param": {
        "no_bias": "False", 
        "num_hidden": "84"
      }, 
      "name": "fullyconnected1", 
      "inputs": [[111, 0], [63, 0], [64, 0]], 
      "backward_source_id": -1
    }, 
    {
      "op": "null", 
      "param": {}, 
      "name": "label/1", 
      "inputs": [], 
      "backward_source_id": -1
    }, 
    {
      "op": "SoftmaxOutput", 
      "param": {
        "grad_scale": "1", 
        "ignore_label": "-1", 
        "multi_output": "False", 
        "normalization": "null", 
        "out_grad": "False", 
        "preserve_shape": "False", 
        "use_ignore": "False"
      }, 
      "name": "t1_sm", 
      "inputs": [[112, 0], [113, 0]], 
      "backward_source_id": -1
    }, 
    {
      "op": "null", 
      "param": {}, 
      "name": "data/2", 
      "inputs": [], 
      "backward_source_id": -1
    }, 
    {
      "op": "Embedding", 
      "param": {
        "input_dim": "84", 
        "output_dim": "256"
      }, 
      "name": "t2_embed", 
      "inputs": [[115, 0], [1, 0]], 
      "backward_source_id": -1
    }, 
    {
      "op": "FullyConnected", 
      "param": {
        "no_bias": "False", 
        "num_hidden": "2048"
      }, 
      "name": "t2_l0_i2h", 
      "inputs": [[116, 0], [3, 0], [4, 0]], 
      "backward_source_id": -1
    }, 
    {
      "op": "FullyConnected", 
      "param": {
        "no_bias": "False", 
        "num_hidden": "2048"
      }, 
      "name": "t2_l0_h2h", 
      "inputs": [[82, 0], [7, 0], [8, 0]], 
      "backward_source_id": -1
    }, 
    {
      "op": "_Plus", 
      "param": {}, 
      "name": "_plus12", 
      "inputs": [[117, 0], [118, 0]], 
      "backward_source_id": -1
    }, 
    {
      "op": "SliceChannel", 
      "param": {
        "axis": "1", 
        "num_outputs": "4", 
        "squeeze_axis": "False"
      }, 
      "name": "t2_l0_slice", 
      "inputs": [[119, 0]], 
      "backward_source_id": -1
    }, 
    {
      "op": "Activation", 
      "param": {"act_type": "sigmoid"}, 
      "name": "activation33", 
      "inputs": [[120, 3]], 
      "backward_source_id": -1
    }, 
    {
      "op": "Activation", 
      "param": {"act_type": "sigmoid"}, 
      "name": "activation32", 
      "inputs": [[120, 2]], 
      "backward_source_id": -1
    }, 
    {
      "op": "_Mul", 
      "param": {}, 
      "name": "_mul18", 
      "inputs": [[122, 0], [80, 0]], 
      "backward_source_id": -1
    }, 
    {
      "op": "Activation", 
      "param": {"act_type": "sigmoid"}, 
      "name": "activation30", 
      "inputs": [[120, 0]], 
      "backward_source_id": -1
    }, 
    {
      "op": "Activation", 
      "param": {"act_type": "tanh"}, 
      "name": "activation31", 
      "inputs": [[120, 1]], 
      "backward_source_id": -1
    }, 
    {
      "op": "_Mul", 
      "param": {}, 
      "name": "_mul19", 
      "inputs": [[124, 0], [125, 0]], 
      "backward_source_id": -1
    }, 
    {
      "op": "_Plus", 
      "param": {}, 
      "name": "_plus13", 
      "inputs": [[123, 0], [126, 0]], 
      "backward_source_id": -1
    }, 
    {
      "op": "Activation", 
      "param": {"act_type": "tanh"}, 
      "name": "activation34", 
      "inputs": [[127, 0]], 
      "backward_source_id": -1
    }, 
    {
      "op": "_Mul", 
      "param": {}, 
      "name": "_mul20", 
      "inputs": [[121, 0], [128, 0]], 
      "backward_source_id": -1
    }, 
    {
      "op": "Dropout", 
      "param": {"p": "0.2"}, 
      "name": "dropout6", 
      "inputs": [[129, 0]], 
      "backward_source_id": -1
    }, 
    {
      "op": "FullyConnected", 
      "param": {
        "no_bias": "False", 
        "num_hidden": "2048"
      }, 
      "name": "t2_l1_i2h", 
      "inputs": [[130, 0], [23, 0], [24, 0]], 
      "backward_source_id": -1
    }, 
    {
      "op": "FullyConnected", 
      "param": {
        "no_bias": "False", 
        "num_hidden": "2048"
      }, 
      "name": "t2_l1_h2h", 
      "inputs": [[96, 0], [27, 0], [28, 0]], 
      "backward_source_id": -1
    }, 
    {
      "op": "_Plus", 
      "param": {}, 
      "name": "_plus14", 
      "inputs": [[131, 0], [132, 0]], 
      "backward_source_id": -1
    }, 
    {
      "op": "SliceChannel", 
      "param": {
        "axis": "1", 
        "num_outputs": "4", 
        "squeeze_axis": "False"
      }, 
      "name": "t2_l1_slice", 
      "inputs": [[133, 0]], 
      "backward_source_id": -1
    }, 
    {
      "op": "Activation", 
      "param": {"act_type": "sigmoid"}, 
      "name": "activation38", 
      "inputs": [[134, 3]], 
      "backward_source_id": -1
    }, 
    {
      "op": "Activation", 
      "param": {"act_type": "sigmoid"}, 
      "name": "activation37", 
      "inputs": [[134, 2]], 
      "backward_source_id": -1
    }, 
    {
      "op": "_Mul", 
      "param": {}, 
      "name": "_mul21", 
      "inputs": [[136, 0], [94, 0]], 
      "backward_source_id": -1
    }, 
    {
      "op": "Activation", 
      "param": {"act_type": "sigmoid"}, 
      "name": "activation35", 
      "inputs": [[134, 0]], 
      "backward_source_id": -1
    }, 
    {
      "op": "Activation", 
      "param": {"act_type": "tanh"}, 
      "name": "activation36", 
      "inputs": [[134, 1]], 
      "backward_source_id": -1
    }, 
    {
      "op": "_Mul", 
      "param": {}, 
      "name": "_mul22", 
      "inputs": [[138, 0], [139, 0]], 
      "backward_source_id": -1
    }, 
    {
      "op": "_Plus", 
      "param": {}, 
      "name": "_plus15", 
      "inputs": [[137, 0], [140, 0]], 
      "backward_source_id": -1
    }, 
    {
      "op": "Activation", 
      "param": {"act_type": "tanh"}, 
      "name": "activation39", 
      "inputs": [[141, 0]], 
      "backward_source_id": -1
    }, 
    {
      "op": "_Mul", 
      "param": {}, 
      "name": "_mul23", 
      "inputs": [[135, 0], [142, 0]], 
      "backward_source_id": -1
    }, 
    {
      "op": "Dropout", 
      "param": {"p": "0.2"}, 
      "name": "dropout7", 
      "inputs": [[143, 0]], 
      "backward_source_id": -1
    }, 
    {
      "op": "FullyConnected", 
      "param": {
        "no_bias": "False", 
        "num_hidden": "2048"
      }, 
      "name": "t2_l2_i2h", 
      "inputs": [[144, 0], [43, 0], [44, 0]], 
      "backward_source_id": -1
    }, 
    {
      "op": "FullyConnected", 
      "param": {
        "no_bias": "False", 
        "num_hidden": "2048"
      }, 
      "name": "t2_l2_h2h", 
      "inputs": [[110, 0], [47, 0], [48, 0]], 
      "backward_source_id": -1
    }, 
    {
      "op": "_Plus", 
      "param": {}, 
      "name": "_plus16", 
      "inputs": [[145, 0], [146, 0]], 
      "backward_source_id": -1
    }, 
    {
      "op": "SliceChannel", 
      "param": {
        "axis": "1", 
        "num_outputs": "4", 
        "squeeze_axis": "False"
      }, 
      "name": "t2_l2_slice", 
      "inputs": [[147, 0]], 
      "backward_source_id": -1
    }, 
    {
      "op": "Activation", 
      "param": {"act_type": "sigmoid"}, 
      "name": "activation43", 
      "inputs": [[148, 3]], 
      "backward_source_id": -1
    }, 
    {
      "op": "Activation", 
      "param": {"act_type": "sigmoid"}, 
      "name": "activation42", 
      "inputs": [[148, 2]], 
      "backward_source_id": -1
    }, 
    {
      "op": "_Mul", 
      "param": {}, 
      "name": "_mul24", 
      "inputs": [[150, 0], [108, 0]], 
      "backward_source_id": -1
    }, 
    {
      "op": "Activation", 
      "param": {"act_type": "sigmoid"}, 
      "name": "activation40", 
      "inputs": [[148, 0]], 
      "backward_source_id": -1
    }, 
    {
      "op": "Activation", 
      "param": {"act_type": "tanh"}, 
      "name": "activation41", 
      "inputs": [[148, 1]], 
      "backward_source_id": -1
    }, 
    {
      "op": "_Mul", 
      "param": {}, 
      "name": "_mul25", 
      "inputs": [[152, 0], [153, 0]], 
      "backward_source_id": -1
    }, 
    {
      "op": "_Plus", 
      "param": {}, 
      "name": "_plus17", 
      "inputs": [[151, 0], [154, 0]], 
      "backward_source_id": -1
    }, 
    {
      "op": "Activation", 
      "param": {"act_type": "tanh"}, 
      "name": "activation44", 
      "inputs": [[155, 0]], 
      "backward_source_id": -1
    }, 
    {
      "op": "_Mul", 
      "param": {}, 
      "name": "_mul26", 
      "inputs": [[149, 0], [156, 0]], 
      "backward_source_id": -1
    }, 
    {
      "op": "Dropout", 
      "param": {"p": "0.2"}, 
      "name": "dropout8", 
      "inputs": [[157, 0]], 
      "backward_source_id": -1
    }, 
    {
      "op": "FullyConnected", 
      "param": {
        "no_bias": "False", 
        "num_hidden": "84"
      }, 
      "name": "fullyconnected2", 
      "inputs": [[158, 0], [63, 0], [64, 0]], 
      "backward_source_id": -1
    }, 
    {
      "op": "null", 
      "param": {}, 
      "name": "label/2", 
      "inputs": [], 
      "backward_source_id": -1
    }, 
    {
      "op": "SoftmaxOutput", 
      "param": {
        "grad_scale": "1", 
        "ignore_label": "-1", 
        "multi_output": "False", 
        "normalization": "null", 
        "out_grad": "False", 
        "preserve_shape": "False", 
        "use_ignore": "False"
      }, 
      "name": "t2_sm", 
      "inputs": [[159, 0], [160, 0]], 
      "backward_source_id": -1
    }, 
    {
      "op": "null", 
      "param": {}, 
      "name": "data/3", 
      "inputs": [], 
      "backward_source_id": -1
    }, 
    {
      "op": "Embedding", 
      "param": {
        "input_dim": "84", 
        "output_dim": "256"
      }, 
      "name": "t3_embed", 
      "inputs": [[162, 0], [1, 0]], 
      "backward_source_id": -1
    }, 
    {
      "op": "FullyConnected", 
      "param": {
        "no_bias": "False", 
        "num_hidden": "2048"
      }, 
      "name": "t3_l0_i2h", 
      "inputs": [[163, 0], [3, 0], [4, 0]], 
      "backward_source_id": -1
    }, 
    {
      "op": "FullyConnected", 
      "param": {
        "no_bias": "False", 
        "num_hidden": "2048"
      }, 
      "name": "t3_l0_h2h", 
      "inputs": [[129, 0], [7, 0], [8, 0]], 
      "backward_source_id": -1
    }, 
    {
      "op": "_Plus", 
      "param": {}, 
      "name": "_plus18", 
      "inputs": [[164, 0], [165, 0]], 
      "backward_source_id": -1
    }, 
    {
      "op": "SliceChannel", 
      "param": {
        "axis": "1", 
        "num_outputs": "4", 
        "squeeze_axis": "False"
      }, 
      "name": "t3_l0_slice", 
      "inputs": [[166, 0]], 
      "backward_source_id": -1
    }, 
    {
      "op": "Activation", 
      "param": {"act_type": "sigmoid"}, 
      "name": "activation48", 
      "inputs": [[167, 3]], 
      "backward_source_id": -1
    }, 
    {
      "op": "Activation", 
      "param": {"act_type": "sigmoid"}, 
      "name": "activation47", 
      "inputs": [[167, 2]], 
      "backward_source_id": -1
    }, 
    {
      "op": "_Mul", 
      "param": {}, 
      "name": "_mul27", 
      "inputs": [[169, 0], [127, 0]], 
      "backward_source_id": -1
    }, 
    {
      "op": "Activation", 
      "param": {"act_type": "sigmoid"}, 
      "name": "activation45", 
      "inputs": [[167, 0]], 
      "backward_source_id": -1
    }, 
    {
      "op": "Activation", 
      "param": {"act_type": "tanh"}, 
      "name": "activation46", 
      "inputs": [[167, 1]], 
      "backward_source_id": -1
    }, 
    {
      "op": "_Mul", 
      "param": {}, 
      "name": "_mul28", 
      "inputs": [[171, 0], [172, 0]], 
      "backward_source_id": -1
    }, 
    {
      "op": "_Plus", 
      "param": {}, 
      "name": "_plus19", 
      "inputs": [[170, 0], [173, 0]], 
      "backward_source_id": -1
    }, 
    {
      "op": "Activation", 
      "param": {"act_type": "tanh"}, 
      "name": "activation49", 
      "inputs": [[174, 0]], 
      "backward_source_id": -1
    }, 
    {
      "op": "_Mul", 
      "param": {}, 
      "name": "_mul29", 
      "inputs": [[168, 0], [175, 0]], 
      "backward_source_id": -1
    }, 
    {
      "op": "Dropout", 
      "param": {"p": "0.2"}, 
      "name": "dropout9", 
      "inputs": [[176, 0]], 
      "backward_source_id": -1
    }, 
    {
      "op": "FullyConnected", 
      "param": {
        "no_bias": "False", 
        "num_hidden": "2048"
      }, 
      "name": "t3_l1_i2h", 
      "inputs": [[177, 0], [23, 0], [24, 0]], 
      "backward_source_id": -1
    }, 
    {
      "op": "FullyConnected", 
      "param": {
        "no_bias": "False", 
        "num_hidden": "2048"
      }, 
      "name": "t3_l1_h2h", 
      "inputs": [[143, 0], [27, 0], [28, 0]], 
      "backward_source_id": -1
    }, 
    {
      "op": "_Plus", 
      "param": {}, 
      "name": "_plus20", 
      "inputs": [[178, 0], [179, 0]], 
      "backward_source_id": -1
    }, 
    {
      "op": "SliceChannel", 
      "param": {
        "axis": "1", 
        "num_outputs": "4", 
        "squeeze_axis": "False"
      }, 
      "name": "t3_l1_slice", 
      "inputs": [[180, 0]], 
      "backward_source_id": -1
    }, 
    {
      "op": "Activation", 
      "param": {"act_type": "sigmoid"}, 
      "name": "activation53", 
      "inputs": [[181, 3]], 
      "backward_source_id": -1
    }, 
    {
      "op": "Activation", 
      "param": {"act_type": "sigmoid"}, 
      "name": "activation52", 
      "inputs": [[181, 2]], 
      "backward_source_id": -1
    }, 
    {
      "op": "_Mul", 
      "param": {}, 
      "name": "_mul30", 
      "inputs": [[183, 0], [141, 0]], 
      "backward_source_id": -1
    }, 
    {
      "op": "Activation", 
      "param": {"act_type": "sigmoid"}, 
      "name": "activation50", 
      "inputs": [[181, 0]], 
      "backward_source_id": -1
    }, 
    {
      "op": "Activation", 
      "param": {"act_type": "tanh"}, 
      "name": "activation51", 
      "inputs": [[181, 1]], 
      "backward_source_id": -1
    }, 
    {
      "op": "_Mul", 
      "param": {}, 
      "name": "_mul31", 
      "inputs": [[185, 0], [186, 0]], 
      "backward_source_id": -1
    }, 
    {
      "op": "_Plus", 
      "param": {}, 
      "name": "_plus21", 
      "inputs": [[184, 0], [187, 0]], 
      "backward_source_id": -1
    }, 
    {
      "op": "Activation", 
      "param": {"act_type": "tanh"}, 
      "name": "activation54", 
      "inputs": [[188, 0]], 
      "backward_source_id": -1
    }, 
    {
      "op": "_Mul", 
      "param": {}, 
      "name": "_mul32", 
      "inputs": [[182, 0], [189, 0]], 
      "backward_source_id": -1
    }, 
    {
      "op": "Dropout", 
      "param": {"p": "0.2"}, 
      "name": "dropout10", 
      "inputs": [[190, 0]], 
      "backward_source_id": -1
    }, 
    {
      "op": "FullyConnected", 
      "param": {
        "no_bias": "False", 
        "num_hidden": "2048"
      }, 
      "name": "t3_l2_i2h", 
      "inputs": [[191, 0], [43, 0], [44, 0]], 
      "backward_source_id": -1
    }, 
    {
      "op": "FullyConnected", 
      "param": {
        "no_bias": "False", 
        "num_hidden": "2048"
      }, 
      "name": "t3_l2_h2h", 
      "inputs": [[157, 0], [47, 0], [48, 0]], 
      "backward_source_id": -1
    }, 
    {
      "op": "_Plus", 
      "param": {}, 
      "name": "_plus22", 
      "inputs": [[192, 0], [193, 0]], 
      "backward_source_id": -1
    }, 
    {
      "op": "SliceChannel", 
      "param": {
        "axis": "1", 
        "num_outputs": "4", 
        "squeeze_axis": "False"
      }, 
      "name": "t3_l2_slice", 
      "inputs": [[194, 0]], 
      "backward_source_id": -1
    }, 
    {
      "op": "Activation", 
      "param": {"act_type": "sigmoid"}, 
      "name": "activation58", 
      "inputs": [[195, 3]], 
      "backward_source_id": -1
    }, 
    {
      "op": "Activation", 
      "param": {"act_type": "sigmoid"}, 
      "name": "activation57", 
      "inputs": [[195, 2]], 
      "backward_source_id": -1
    }, 
    {
      "op": "_Mul", 
      "param": {}, 
      "name": "_mul33", 
      "inputs": [[197, 0], [155, 0]], 
      "backward_source_id": -1
    }, 
    {
      "op": "Activation", 
      "param": {"act_type": "sigmoid"}, 
      "name": "activation55", 
      "inputs": [[195, 0]], 
      "backward_source_id": -1
    }, 
    {
      "op": "Activation", 
      "param": {"act_type": "tanh"}, 
      "name": "activation56", 
      "inputs": [[195, 1]], 
      "backward_source_id": -1
    }, 
    {
      "op": "_Mul", 
      "param": {}, 
      "name": "_mul34", 
      "inputs": [[199, 0], [200, 0]], 
      "backward_source_id": -1
    }, 
    {
      "op": "_Plus", 
      "param": {}, 
      "name": "_plus23", 
      "inputs": [[198, 0], [201, 0]], 
      "backward_source_id": -1
    }, 
    {
      "op": "Activation", 
      "param": {"act_type": "tanh"}, 
      "name": "activation59", 
      "inputs": [[202, 0]], 
      "backward_source_id": -1
    }, 
    {
      "op": "_Mul", 
      "param": {}, 
      "name": "_mul35", 
      "inputs": [[196, 0], [203, 0]], 
      "backward_source_id": -1
    }, 
    {
      "op": "Dropout", 
      "param": {"p": "0.2"}, 
      "name": "dropout11", 
      "inputs": [[204, 0]], 
      "backward_source_id": -1
    }, 
    {
      "op": "FullyConnected", 
      "param": {
        "no_bias": "False", 
        "num_hidden": "84"
      }, 
      "name": "fullyconnected3", 
      "inputs": [[205, 0], [63, 0], [64, 0]], 
      "backward_source_id": -1
    }, 
    {
      "op": "null", 
      "param": {}, 
      "name": "label/3", 
      "inputs": [], 
      "backward_source_id": -1
    }, 
    {
      "op": "SoftmaxOutput", 
      "param": {
        "grad_scale": "1", 
        "ignore_label": "-1", 
        "multi_output": "False", 
        "normalization": "null", 
        "out_grad": "False", 
        "preserve_shape": "False", 
        "use_ignore": "False"
      }, 
      "name": "t3_sm", 
      "inputs": [[206, 0], [207, 0]], 
      "backward_source_id": -1
    }, 
    {
      "op": "null", 
      "param": {}, 
      "name": "data/4", 
      "inputs": [], 
      "backward_source_id": -1
    }, 
    {
      "op": "Embedding", 
      "param": {
        "input_dim": "84", 
        "output_dim": "256"
      }, 
      "name": "t4_embed", 
      "inputs": [[209, 0], [1, 0]], 
      "backward_source_id": -1
    }, 
    {
      "op": "FullyConnected", 
      "param": {
        "no_bias": "False", 
        "num_hidden": "2048"
      }, 
      "name": "t4_l0_i2h", 
      "inputs": [[210, 0], [3, 0], [4, 0]], 
      "backward_source_id": -1
    }, 
    {
      "op": "FullyConnected", 
      "param": {
        "no_bias": "False", 
        "num_hidden": "2048"
      }, 
      "name": "t4_l0_h2h", 
      "inputs": [[176, 0], [7, 0], [8, 0]], 
      "backward_source_id": -1
    }, 
    {
      "op": "_Plus", 
      "param": {}, 
      "name": "_plus24", 
      "inputs": [[211, 0], [212, 0]], 
      "backward_source_id": -1
    }, 
    {
      "op": "SliceChannel", 
      "param": {
        "axis": "1", 
        "num_outputs": "4", 
        "squeeze_axis": "False"
      }, 
      "name": "t4_l0_slice", 
      "inputs": [[213, 0]], 
      "backward_source_id": -1
    }, 
    {
      "op": "Activation", 
      "param": {"act_type": "sigmoid"}, 
      "name": "activation63", 
      "inputs": [[214, 3]], 
      "backward_source_id": -1
    }, 
    {
      "op": "Activation", 
      "param": {"act_type": "sigmoid"}, 
      "name": "activation62", 
      "inputs": [[214, 2]], 
      "backward_source_id": -1
    }, 
    {
      "op": "_Mul", 
      "param": {}, 
      "name": "_mul36", 
      "inputs": [[216, 0], [174, 0]], 
      "backward_source_id": -1
    }, 
    {
      "op": "Activation", 
      "param": {"act_type": "sigmoid"}, 
      "name": "activation60", 
      "inputs": [[214, 0]], 
      "backward_source_id": -1
    }, 
    {
      "op": "Activation", 
      "param": {"act_type": "tanh"}, 
      "name": "activation61", 
      "inputs": [[214, 1]], 
      "backward_source_id": -1
    }, 
    {
      "op": "_Mul", 
      "param": {}, 
      "name": "_mul37", 
      "inputs": [[218, 0], [219, 0]], 
      "backward_source_id": -1
    }, 
    {
      "op": "_Plus", 
      "param": {}, 
      "name": "_plus25", 
      "inputs": [[217, 0], [220, 0]], 
      "backward_source_id": -1
    }, 
    {
      "op": "Activation", 
      "param": {"act_type": "tanh"}, 
      "name": "activation64", 
      "inputs": [[221, 0]], 
      "backward_source_id": -1
    }, 
    {
      "op": "_Mul", 
      "param": {}, 
      "name": "_mul38", 
      "inputs": [[215, 0], [222, 0]], 
      "backward_source_id": -1
    }, 
    {
      "op": "Dropout", 
      "param": {"p": "0.2"}, 
      "name": "dropout12", 
      "inputs": [[223, 0]], 
      "backward_source_id": -1
    }, 
    {
      "op": "FullyConnected", 
      "param": {
        "no_bias": "False", 
        "num_hidden": "2048"
      }, 
      "name": "t4_l1_i2h", 
      "inputs": [[224, 0], [23, 0], [24, 0]], 
      "backward_source_id": -1
    }, 
    {
      "op": "FullyConnected", 
      "param": {
        "no_bias": "False", 
        "num_hidden": "2048"
      }, 
      "name": "t4_l1_h2h", 
      "inputs": [[190, 0], [27, 0], [28, 0]], 
      "backward_source_id": -1
    }, 
    {
      "op": "_Plus", 
      "param": {}, 
      "name": "_plus26", 
      "inputs": [[225, 0], [226, 0]], 
      "backward_source_id": -1
    }, 
    {
      "op": "SliceChannel", 
      "param": {
        "axis": "1", 
        "num_outputs": "4", 
        "squeeze_axis": "False"
      }, 
      "name": "t4_l1_slice", 
      "inputs": [[227, 0]], 
      "backward_source_id": -1
    }, 
    {
      "op": "Activation", 
      "param": {"act_type": "sigmoid"}, 
      "name": "activation68", 
      "inputs": [[228, 3]], 
      "backward_source_id": -1
    }, 
    {
      "op": "Activation", 
      "param": {"act_type": "sigmoid"}, 
      "name": "activation67", 
      "inputs": [[228, 2]], 
      "backward_source_id": -1
    }, 
    {
      "op": "_Mul", 
      "param": {}, 
      "name": "_mul39", 
      "inputs": [[230, 0], [188, 0]], 
      "backward_source_id": -1
    }, 
    {
      "op": "Activation", 
      "param": {"act_type": "sigmoid"}, 
      "name": "activation65", 
      "inputs": [[228, 0]], 
      "backward_source_id": -1
    }, 
    {
      "op": "Activation", 
      "param": {"act_type": "tanh"}, 
      "name": "activation66", 
      "inputs": [[228, 1]], 
      "backward_source_id": -1
    }, 
    {
      "op": "_Mul", 
      "param": {}, 
      "name": "_mul40", 
      "inputs": [[232, 0], [233, 0]], 
      "backward_source_id": -1
    }, 
    {
      "op": "_Plus", 
      "param": {}, 
      "name": "_plus27", 
      "inputs": [[231, 0], [234, 0]], 
      "backward_source_id": -1
    }, 
    {
      "op": "Activation", 
      "param": {"act_type": "tanh"}, 
      "name": "activation69", 
      "inputs": [[235, 0]], 
      "backward_source_id": -1
    }, 
    {
      "op": "_Mul", 
      "param": {}, 
      "name": "_mul41", 
      "inputs": [[229, 0], [236, 0]], 
      "backward_source_id": -1
    }, 
    {
      "op": "Dropout", 
      "param": {"p": "0.2"}, 
      "name": "dropout13", 
      "inputs": [[237, 0]], 
      "backward_source_id": -1
    }, 
    {
      "op": "FullyConnected", 
      "param": {
        "no_bias": "False", 
        "num_hidden": "2048"
      }, 
      "name": "t4_l2_i2h", 
      "inputs": [[238, 0], [43, 0], [44, 0]], 
      "backward_source_id": -1
    }, 
    {
      "op": "FullyConnected", 
      "param": {
        "no_bias": "False", 
        "num_hidden": "2048"
      }, 
      "name": "t4_l2_h2h", 
      "inputs": [[204, 0], [47, 0], [48, 0]], 
      "backward_source_id": -1
    }, 
    {
      "op": "_Plus", 
      "param": {}, 
      "name": "_plus28", 
      "inputs": [[239, 0], [240, 0]], 
      "backward_source_id": -1
    }, 
    {
      "op": "SliceChannel", 
      "param": {
        "axis": "1", 
        "num_outputs": "4", 
        "squeeze_axis": "False"
      }, 
      "name": "t4_l2_slice", 
      "inputs": [[241, 0]], 
      "backward_source_id": -1
    }, 
    {
      "op": "Activation", 
      "param": {"act_type": "sigmoid"}, 
      "name": "activation73", 
      "inputs": [[242, 3]], 
      "backward_source_id": -1
    }, 
    {
      "op": "Activation", 
      "param": {"act_type": "sigmoid"}, 
      "name": "activation72", 
      "inputs": [[242, 2]], 
      "backward_source_id": -1
    }, 
    {
      "op": "_Mul", 
      "param": {}, 
      "name": "_mul42", 
      "inputs": [[244, 0], [202, 0]], 
      "backward_source_id": -1
    }, 
    {
      "op": "Activation", 
      "param": {"act_type": "sigmoid"}, 
      "name": "activation70", 
      "inputs": [[242, 0]], 
      "backward_source_id": -1
    }, 
    {
      "op": "Activation", 
      "param": {"act_type": "tanh"}, 
      "name": "activation71", 
      "inputs": [[242, 1]], 
      "backward_source_id": -1
    }, 
    {
      "op": "_Mul", 
      "param": {}, 
      "name": "_mul43", 
      "inputs": [[246, 0], [247, 0]], 
      "backward_source_id": -1
    }, 
    {
      "op": "_Plus", 
      "param": {}, 
      "name": "_plus29", 
      "inputs": [[245, 0], [248, 0]], 
      "backward_source_id": -1
    }, 
    {
      "op": "Activation", 
      "param": {"act_type": "tanh"}, 
      "name": "activation74", 
      "inputs": [[249, 0]], 
      "backward_source_id": -1
    }, 
    {
      "op": "_Mul", 
      "param": {}, 
      "name": "_mul44", 
      "inputs": [[243, 0], [250, 0]], 
      "backward_source_id": -1
    }, 
    {
      "op": "Dropout", 
      "param": {"p": "0.2"}, 
      "name": "dropout14", 
      "inputs": [[251, 0]], 
      "backward_source_id": -1
    }, 
    {
      "op": "FullyConnected", 
      "param": {
        "no_bias": "False", 
        "num_hidden": "84"
      }, 
      "name": "fullyconnected4", 
      "inputs": [[252, 0], [63, 0], [64, 0]], 
      "backward_source_id": -1
    }, 
    {
      "op": "null", 
      "param": {}, 
      "name": "label/4", 
      "inputs": [], 
      "backward_source_id": -1
    }, 
    {
      "op": "SoftmaxOutput", 
      "param": {
        "grad_scale": "1", 
        "ignore_label": "-1", 
        "multi_output": "False", 
        "normalization": "null", 
        "out_grad": "False", 
        "preserve_shape": "False", 
        "use_ignore": "False"
      }, 
      "name": "t4_sm", 
      "inputs": [[253, 0], [254, 0]], 
      "backward_source_id": -1
    }, 
    {
      "op": "null", 
      "param": {}, 
      "name": "data/5", 
      "inputs": [], 
      "backward_source_id": -1
    }, 
    {
      "op": "Embedding", 
      "param": {
        "input_dim": "84", 
        "output_dim": "256"
      }, 
      "name": "t5_embed", 
      "inputs": [[256, 0], [1, 0]], 
      "backward_source_id": -1
    }, 
    {
      "op": "FullyConnected", 
      "param": {
        "no_bias": "False", 
        "num_hidden": "2048"
      }, 
      "name": "t5_l0_i2h", 
      "inputs": [[257, 0], [3, 0], [4, 0]], 
      "backward_source_id": -1
    }, 
    {
      "op": "FullyConnected", 
      "param": {
        "no_bias": "False", 
        "num_hidden": "2048"
      }, 
      "name": "t5_l0_h2h", 
      "inputs": [[223, 0], [7, 0], [8, 0]], 
      "backward_source_id": -1
    }, 
    {
      "op": "_Plus", 
      "param": {}, 
      "name": "_plus30", 
      "inputs": [[258, 0], [259, 0]], 
      "backward_source_id": -1
    }, 
    {
      "op": "SliceChannel", 
      "param": {
        "axis": "1", 
        "num_outputs": "4", 
        "squeeze_axis": "False"
      }, 
      "name": "t5_l0_slice", 
      "inputs": [[260, 0]], 
      "backward_source_id": -1
    }, 
    {
      "op": "Activation", 
      "param": {"act_type": "sigmoid"}, 
      "name": "activation78", 
      "inputs": [[261, 3]], 
      "backward_source_id": -1
    }, 
    {
      "op": "Activation", 
      "param": {"act_type": "sigmoid"}, 
      "name": "activation77", 
      "inputs": [[261, 2]], 
      "backward_source_id": -1
    }, 
    {
      "op": "_Mul", 
      "param": {}, 
      "name": "_mul45", 
      "inputs": [[263, 0], [221, 0]], 
      "backward_source_id": -1
    }, 
    {
      "op": "Activation", 
      "param": {"act_type": "sigmoid"}, 
      "name": "activation75", 
      "inputs": [[261, 0]], 
      "backward_source_id": -1
    }, 
    {
      "op": "Activation", 
      "param": {"act_type": "tanh"}, 
      "name": "activation76", 
      "inputs": [[261, 1]], 
      "backward_source_id": -1
    }, 
    {
      "op": "_Mul", 
      "param": {}, 
      "name": "_mul46", 
      "inputs": [[265, 0], [266, 0]], 
      "backward_source_id": -1
    }, 
    {
      "op": "_Plus", 
      "param": {}, 
      "name": "_plus31", 
      "inputs": [[264, 0], [267, 0]], 
      "backward_source_id": -1
    }, 
    {
      "op": "Activation", 
      "param": {"act_type": "tanh"}, 
      "name": "activation79", 
      "inputs": [[268, 0]], 
      "backward_source_id": -1
    }, 
    {
      "op": "_Mul", 
      "param": {}, 
      "name": "_mul47", 
      "inputs": [[262, 0], [269, 0]], 
      "backward_source_id": -1
    }, 
    {
      "op": "Dropout", 
      "param": {"p": "0.2"}, 
      "name": "dropout15", 
      "inputs": [[270, 0]], 
      "backward_source_id": -1
    }, 
    {
      "op": "FullyConnected", 
      "param": {
        "no_bias": "False", 
        "num_hidden": "2048"
      }, 
      "name": "t5_l1_i2h", 
      "inputs": [[271, 0], [23, 0], [24, 0]], 
      "backward_source_id": -1
    }, 
    {
      "op": "FullyConnected", 
      "param": {
        "no_bias": "False", 
        "num_hidden": "2048"
      }, 
      "name": "t5_l1_h2h", 
      "inputs": [[237, 0], [27, 0], [28, 0]], 
      "backward_source_id": -1
    }, 
    {
      "op": "_Plus", 
      "param": {}, 
      "name": "_plus32", 
      "inputs": [[272, 0], [273, 0]], 
      "backward_source_id": -1
    }, 
    {
      "op": "SliceChannel", 
      "param": {
        "axis": "1", 
        "num_outputs": "4", 
        "squeeze_axis": "False"
      }, 
      "name": "t5_l1_slice", 
      "inputs": [[274, 0]], 
      "backward_source_id": -1
    }, 
    {
      "op": "Activation", 
      "param": {"act_type": "sigmoid"}, 
      "name": "activation83", 
      "inputs": [[275, 3]], 
      "backward_source_id": -1
    }, 
    {
      "op": "Activation", 
      "param": {"act_type": "sigmoid"}, 
      "name": "activation82", 
      "inputs": [[275, 2]], 
      "backward_source_id": -1
    }, 
    {
      "op": "_Mul", 
      "param": {}, 
      "name": "_mul48", 
      "inputs": [[277, 0], [235, 0]], 
      "backward_source_id": -1
    }, 
    {
      "op": "Activation", 
      "param": {"act_type": "sigmoid"}, 
      "name": "activation80", 
      "inputs": [[275, 0]], 
      "backward_source_id": -1
    }, 
    {
      "op": "Activation", 
      "param": {"act_type": "tanh"}, 
      "name": "activation81", 
      "inputs": [[275, 1]], 
      "backward_source_id": -1
    }, 
    {
      "op": "_Mul", 
      "param": {}, 
      "name": "_mul49", 
      "inputs": [[279, 0], [280, 0]], 
      "backward_source_id": -1
    }, 
    {
      "op": "_Plus", 
      "param": {}, 
      "name": "_plus33", 
      "inputs": [[278, 0], [281, 0]], 
      "backward_source_id": -1
    }, 
    {
      "op": "Activation", 
      "param": {"act_type": "tanh"}, 
      "name": "activation84", 
      "inputs": [[282, 0]], 
      "backward_source_id": -1
    }, 
    {
      "op": "_Mul", 
      "param": {}, 
      "name": "_mul50", 
      "inputs": [[276, 0], [283, 0]], 
      "backward_source_id": -1
    }, 
    {
      "op": "Dropout", 
      "param": {"p": "0.2"}, 
      "name": "dropout16", 
      "inputs": [[284, 0]], 
      "backward_source_id": -1
    }, 
    {
      "op": "FullyConnected", 
      "param": {
        "no_bias": "False", 
        "num_hidden": "2048"
      }, 
      "name": "t5_l2_i2h", 
      "inputs": [[285, 0], [43, 0], [44, 0]], 
      "backward_source_id": -1
    }, 
    {
      "op": "FullyConnected", 
      "param": {
        "no_bias": "False", 
        "num_hidden": "2048"
      }, 
      "name": "t5_l2_h2h", 
      "inputs": [[251, 0], [47, 0], [48, 0]], 
      "backward_source_id": -1
    }, 
    {
      "op": "_Plus", 
      "param": {}, 
      "name": "_plus34", 
      "inputs": [[286, 0], [287, 0]], 
      "backward_source_id": -1
    }, 
    {
      "op": "SliceChannel", 
      "param": {
        "axis": "1", 
        "num_outputs": "4", 
        "squeeze_axis": "False"
      }, 
      "name": "t5_l2_slice", 
      "inputs": [[288, 0]], 
      "backward_source_id": -1
    }, 
    {
      "op": "Activation", 
      "param": {"act_type": "sigmoid"}, 
      "name": "activation88", 
      "inputs": [[289, 3]], 
      "backward_source_id": -1
    }, 
    {
      "op": "Activation", 
      "param": {"act_type": "sigmoid"}, 
      "name": "activation87", 
      "inputs": [[289, 2]], 
      "backward_source_id": -1
    }, 
    {
      "op": "_Mul", 
      "param": {}, 
      "name": "_mul51", 
      "inputs": [[291, 0], [249, 0]], 
      "backward_source_id": -1
    }, 
    {
      "op": "Activation", 
      "param": {"act_type": "sigmoid"}, 
      "name": "activation85", 
      "inputs": [[289, 0]], 
      "backward_source_id": -1
    }, 
    {
      "op": "Activation", 
      "param": {"act_type": "tanh"}, 
      "name": "activation86", 
      "inputs": [[289, 1]], 
      "backward_source_id": -1
    }, 
    {
      "op": "_Mul", 
      "param": {}, 
      "name": "_mul52", 
      "inputs": [[293, 0], [294, 0]], 
      "backward_source_id": -1
    }, 
    {
      "op": "_Plus", 
      "param": {}, 
      "name": "_plus35", 
      "inputs": [[292, 0], [295, 0]], 
      "backward_source_id": -1
    }, 
    {
      "op": "Activation", 
      "param": {"act_type": "tanh"}, 
      "name": "activation89", 
      "inputs": [[296, 0]], 
      "backward_source_id": -1
    }, 
    {
      "op": "_Mul", 
      "param": {}, 
      "name": "_mul53", 
      "inputs": [[290, 0], [297, 0]], 
      "backward_source_id": -1
    }, 
    {
      "op": "Dropout", 
      "param": {"p": "0.2"}, 
      "name": "dropout17", 
      "inputs": [[298, 0]], 
      "backward_source_id": -1
    }, 
    {
      "op": "FullyConnected", 
      "param": {
        "no_bias": "False", 
        "num_hidden": "84"
      }, 
      "name": "fullyconnected5", 
      "inputs": [[299, 0], [63, 0], [64, 0]], 
      "backward_source_id": -1
    }, 
    {
      "op": "null", 
      "param": {}, 
      "name": "label/5", 
      "inputs": [], 
      "backward_source_id": -1
    }, 
    {
      "op": "SoftmaxOutput", 
      "param": {
        "grad_scale": "1", 
        "ignore_label": "-1", 
        "multi_output": "False", 
        "normalization": "null", 
        "out_grad": "False", 
        "preserve_shape": "False", 
        "use_ignore": "False"
      }, 
      "name": "t5_sm", 
      "inputs": [[300, 0], [301, 0]], 
      "backward_source_id": -1
    }, 
    {
      "op": "null", 
      "param": {}, 
      "name": "data/6", 
      "inputs": [], 
      "backward_source_id": -1
    }, 
    {
      "op": "Embedding", 
      "param": {
        "input_dim": "84", 
        "output_dim": "256"
      }, 
      "name": "t6_embed", 
      "inputs": [[303, 0], [1, 0]], 
      "backward_source_id": -1
    }, 
    {
      "op": "FullyConnected", 
      "param": {
        "no_bias": "False", 
        "num_hidden": "2048"
      }, 
      "name": "t6_l0_i2h", 
      "inputs": [[304, 0], [3, 0], [4, 0]], 
      "backward_source_id": -1
    }, 
    {
      "op": "FullyConnected", 
      "param": {
        "no_bias": "False", 
        "num_hidden": "2048"
      }, 
      "name": "t6_l0_h2h", 
      "inputs": [[270, 0], [7, 0], [8, 0]], 
      "backward_source_id": -1
    }, 
    {
      "op": "_Plus", 
      "param": {}, 
      "name": "_plus36", 
      "inputs": [[305, 0], [306, 0]], 
      "backward_source_id": -1
    }, 
    {
      "op": "SliceChannel", 
      "param": {
        "axis": "1", 
        "num_outputs": "4", 
        "squeeze_axis": "False"
      }, 
      "name": "t6_l0_slice", 
      "inputs": [[307, 0]], 
      "backward_source_id": -1
    }, 
    {
      "op": "Activation", 
      "param": {"act_type": "sigmoid"}, 
      "name": "activation93", 
      "inputs": [[308, 3]], 
      "backward_source_id": -1
    }, 
    {
      "op": "Activation", 
      "param": {"act_type": "sigmoid"}, 
      "name": "activation92", 
      "inputs": [[308, 2]], 
      "backward_source_id": -1
    }, 
    {
      "op": "_Mul", 
      "param": {}, 
      "name": "_mul54", 
      "inputs": [[310, 0], [268, 0]], 
      "backward_source_id": -1
    }, 
    {
      "op": "Activation", 
      "param": {"act_type": "sigmoid"}, 
      "name": "activation90", 
      "inputs": [[308, 0]], 
      "backward_source_id": -1
    }, 
    {
      "op": "Activation", 
      "param": {"act_type": "tanh"}, 
      "name": "activation91", 
      "inputs": [[308, 1]], 
      "backward_source_id": -1
    }, 
    {
      "op": "_Mul", 
      "param": {}, 
      "name": "_mul55", 
      "inputs": [[312, 0], [313, 0]], 
      "backward_source_id": -1
    }, 
    {
      "op": "_Plus", 
      "param": {}, 
      "name": "_plus37", 
      "inputs": [[311, 0], [314, 0]], 
      "backward_source_id": -1
    }, 
    {
      "op": "Activation", 
      "param": {"act_type": "tanh"}, 
      "name": "activation94", 
      "inputs": [[315, 0]], 
      "backward_source_id": -1
    }, 
    {
      "op": "_Mul", 
      "param": {}, 
      "name": "_mul56", 
      "inputs": [[309, 0], [316, 0]], 
      "backward_source_id": -1
    }, 
    {
      "op": "Dropout", 
      "param": {"p": "0.2"}, 
      "name": "dropout18", 
      "inputs": [[317, 0]], 
      "backward_source_id": -1
    }, 
    {
      "op": "FullyConnected", 
      "param": {
        "no_bias": "False", 
        "num_hidden": "2048"
      }, 
      "name": "t6_l1_i2h", 
      "inputs": [[318, 0], [23, 0], [24, 0]], 
      "backward_source_id": -1
    }, 
    {
      "op": "FullyConnected", 
      "param": {
        "no_bias": "False", 
        "num_hidden": "2048"
      }, 
      "name": "t6_l1_h2h", 
      "inputs": [[284, 0], [27, 0], [28, 0]], 
      "backward_source_id": -1
    }, 
    {
      "op": "_Plus", 
      "param": {}, 
      "name": "_plus38", 
      "inputs": [[319, 0], [320, 0]], 
      "backward_source_id": -1
    }, 
    {
      "op": "SliceChannel", 
      "param": {
        "axis": "1", 
        "num_outputs": "4", 
        "squeeze_axis": "False"
      }, 
      "name": "t6_l1_slice", 
      "inputs": [[321, 0]], 
      "backward_source_id": -1
    }, 
    {
      "op": "Activation", 
      "param": {"act_type": "sigmoid"}, 
      "name": "activation98", 
      "inputs": [[322, 3]], 
      "backward_source_id": -1
    }, 
    {
      "op": "Activation", 
      "param": {"act_type": "sigmoid"}, 
      "name": "activation97", 
      "inputs": [[322, 2]], 
      "backward_source_id": -1
    }, 
    {
      "op": "_Mul", 
      "param": {}, 
      "name": "_mul57", 
      "inputs": [[324, 0], [282, 0]], 
      "backward_source_id": -1
    }, 
    {
      "op": "Activation", 
      "param": {"act_type": "sigmoid"}, 
      "name": "activation95", 
      "inputs": [[322, 0]], 
      "backward_source_id": -1
    }, 
    {
      "op": "Activation", 
      "param": {"act_type": "tanh"}, 
      "name": "activation96", 
      "inputs": [[322, 1]], 
      "backward_source_id": -1
    }, 
    {
      "op": "_Mul", 
      "param": {}, 
      "name": "_mul58", 
      "inputs": [[326, 0], [327, 0]], 
      "backward_source_id": -1
    }, 
    {
      "op": "_Plus", 
      "param": {}, 
      "name": "_plus39", 
      "inputs": [[325, 0], [328, 0]], 
      "backward_source_id": -1
    }, 
    {
      "op": "Activation", 
      "param": {"act_type": "tanh"}, 
      "name": "activation99", 
      "inputs": [[329, 0]], 
      "backward_source_id": -1
    }, 
    {
      "op": "_Mul", 
      "param": {}, 
      "name": "_mul59", 
      "inputs": [[323, 0], [330, 0]], 
      "backward_source_id": -1
    }, 
    {
      "op": "Dropout", 
      "param": {"p": "0.2"}, 
      "name": "dropout19", 
      "inputs": [[331, 0]], 
      "backward_source_id": -1
    }, 
    {
      "op": "FullyConnected", 
      "param": {
        "no_bias": "False", 
        "num_hidden": "2048"
      }, 
      "name": "t6_l2_i2h", 
      "inputs": [[332, 0], [43, 0], [44, 0]], 
      "backward_source_id": -1
    }, 
    {
      "op": "FullyConnected", 
      "param": {
        "no_bias": "False", 
        "num_hidden": "2048"
      }, 
      "name": "t6_l2_h2h", 
      "inputs": [[298, 0], [47, 0], [48, 0]], 
      "backward_source_id": -1
    }, 
    {
      "op": "_Plus", 
      "param": {}, 
      "name": "_plus40", 
      "inputs": [[333, 0], [334, 0]], 
      "backward_source_id": -1
    }, 
    {
      "op": "SliceChannel", 
      "param": {
        "axis": "1", 
        "num_outputs": "4", 
        "squeeze_axis": "False"
      }, 
      "name": "t6_l2_slice", 
      "inputs": [[335, 0]], 
      "backward_source_id": -1
    }, 
    {
      "op": "Activation", 
      "param": {"act_type": "sigmoid"}, 
      "name": "activation103", 
      "inputs": [[336, 3]], 
      "backward_source_id": -1
    }, 
    {
      "op": "Activation", 
      "param": {"act_type": "sigmoid"}, 
      "name": "activation102", 
      "inputs": [[336, 2]], 
      "backward_source_id": -1
    }, 
    {
      "op": "_Mul", 
      "param": {}, 
      "name": "_mul60", 
      "inputs": [[338, 0], [296, 0]], 
      "backward_source_id": -1
    }, 
    {
      "op": "Activation", 
      "param": {"act_type": "sigmoid"}, 
      "name": "activation100", 
      "inputs": [[336, 0]], 
      "backward_source_id": -1
    }, 
    {
      "op": "Activation", 
      "param": {"act_type": "tanh"}, 
      "name": "activation101", 
      "inputs": [[336, 1]], 
      "backward_source_id": -1
    }, 
    {
      "op": "_Mul", 
      "param": {}, 
      "name": "_mul61", 
      "inputs": [[340, 0], [341, 0]], 
      "backward_source_id": -1
    }, 
    {
      "op": "_Plus", 
      "param": {}, 
      "name": "_plus41", 
      "inputs": [[339, 0], [342, 0]], 
      "backward_source_id": -1
    }, 
    {
      "op": "Activation", 
      "param": {"act_type": "tanh"}, 
      "name": "activation104", 
      "inputs": [[343, 0]], 
      "backward_source_id": -1
    }, 
    {
      "op": "_Mul", 
      "param": {}, 
      "name": "_mul62", 
      "inputs": [[337, 0], [344, 0]], 
      "backward_source_id": -1
    }, 
    {
      "op": "Dropout", 
      "param": {"p": "0.2"}, 
      "name": "dropout20", 
      "inputs": [[345, 0]], 
      "backward_source_id": -1
    }, 
    {
      "op": "FullyConnected", 
      "param": {
        "no_bias": "False", 
        "num_hidden": "84"
      }, 
      "name": "fullyconnected6", 
      "inputs": [[346, 0], [63, 0], [64, 0]], 
      "backward_source_id": -1
    }, 
    {
      "op": "null", 
      "param": {}, 
      "name": "label/6", 
      "inputs": [], 
      "backward_source_id": -1
    }, 
    {
      "op": "SoftmaxOutput", 
      "param": {
        "grad_scale": "1", 
        "ignore_label": "-1", 
        "multi_output": "False", 
        "normalization": "null", 
        "out_grad": "False", 
        "preserve_shape": "False", 
        "use_ignore": "False"
      }, 
      "name": "t6_sm", 
      "inputs": [[347, 0], [348, 0]], 
      "backward_source_id": -1
    }, 
    {
      "op": "null", 
      "param": {}, 
      "name": "data/7", 
      "inputs": [], 
      "backward_source_id": -1
    }, 
    {
      "op": "Embedding", 
      "param": {
        "input_dim": "84", 
        "output_dim": "256"
      }, 
      "name": "t7_embed", 
      "inputs": [[350, 0], [1, 0]], 
      "backward_source_id": -1
    }, 
    {
      "op": "FullyConnected", 
      "param": {
        "no_bias": "False", 
        "num_hidden": "2048"
      }, 
      "name": "t7_l0_i2h", 
      "inputs": [[351, 0], [3, 0], [4, 0]], 
      "backward_source_id": -1
    }, 
    {
      "op": "FullyConnected", 
      "param": {
        "no_bias": "False", 
        "num_hidden": "2048"
      }, 
      "name": "t7_l0_h2h", 
      "inputs": [[317, 0], [7, 0], [8, 0]], 
      "backward_source_id": -1
    }, 
    {
      "op": "_Plus", 
      "param": {}, 
      "name": "_plus42", 
      "inputs": [[352, 0], [353, 0]], 
      "backward_source_id": -1
    }, 
    {
      "op": "SliceChannel", 
      "param": {
        "axis": "1", 
        "num_outputs": "4", 
        "squeeze_axis": "False"
      }, 
      "name": "t7_l0_slice", 
      "inputs": [[354, 0]], 
      "backward_source_id": -1
    }, 
    {
      "op": "Activation", 
      "param": {"act_type": "sigmoid"}, 
      "name": "activation108", 
      "inputs": [[355, 3]], 
      "backward_source_id": -1
    }, 
    {
      "op": "Activation", 
      "param": {"act_type": "sigmoid"}, 
      "name": "activation107", 
      "inputs": [[355, 2]], 
      "backward_source_id": -1
    }, 
    {
      "op": "_Mul", 
      "param": {}, 
      "name": "_mul63", 
      "inputs": [[357, 0], [315, 0]], 
      "backward_source_id": -1
    }, 
    {
      "op": "Activation", 
      "param": {"act_type": "sigmoid"}, 
      "name": "activation105", 
      "inputs": [[355, 0]], 
      "backward_source_id": -1
    }, 
    {
      "op": "Activation", 
      "param": {"act_type": "tanh"}, 
      "name": "activation106", 
      "inputs": [[355, 1]], 
      "backward_source_id": -1
    }, 
    {
      "op": "_Mul", 
      "param": {}, 
      "name": "_mul64", 
      "inputs": [[359, 0], [360, 0]], 
      "backward_source_id": -1
    }, 
    {
      "op": "_Plus", 
      "param": {}, 
      "name": "_plus43", 
      "inputs": [[358, 0], [361, 0]], 
      "backward_source_id": -1
    }, 
    {
      "op": "Activation", 
      "param": {"act_type": "tanh"}, 
      "name": "activation109", 
      "inputs": [[362, 0]], 
      "backward_source_id": -1
    }, 
    {
      "op": "_Mul", 
      "param": {}, 
      "name": "_mul65", 
      "inputs": [[356, 0], [363, 0]], 
      "backward_source_id": -1
    }, 
    {
      "op": "Dropout", 
      "param": {"p": "0.2"}, 
      "name": "dropout21", 
      "inputs": [[364, 0]], 
      "backward_source_id": -1
    }, 
    {
      "op": "FullyConnected", 
      "param": {
        "no_bias": "False", 
        "num_hidden": "2048"
      }, 
      "name": "t7_l1_i2h", 
      "inputs": [[365, 0], [23, 0], [24, 0]], 
      "backward_source_id": -1
    }, 
    {
      "op": "FullyConnected", 
      "param": {
        "no_bias": "False", 
        "num_hidden": "2048"
      }, 
      "name": "t7_l1_h2h", 
      "inputs": [[331, 0], [27, 0], [28, 0]], 
      "backward_source_id": -1
    }, 
    {
      "op": "_Plus", 
      "param": {}, 
      "name": "_plus44", 
      "inputs": [[366, 0], [367, 0]], 
      "backward_source_id": -1
    }, 
    {
      "op": "SliceChannel", 
      "param": {
        "axis": "1", 
        "num_outputs": "4", 
        "squeeze_axis": "False"
      }, 
      "name": "t7_l1_slice", 
      "inputs": [[368, 0]], 
      "backward_source_id": -1
    }, 
    {
      "op": "Activation", 
      "param": {"act_type": "sigmoid"}, 
      "name": "activation113", 
      "inputs": [[369, 3]], 
      "backward_source_id": -1
    }, 
    {
      "op": "Activation", 
      "param": {"act_type": "sigmoid"}, 
      "name": "activation112", 
      "inputs": [[369, 2]], 
      "backward_source_id": -1
    }, 
    {
      "op": "_Mul", 
      "param": {}, 
      "name": "_mul66", 
      "inputs": [[371, 0], [329, 0]], 
      "backward_source_id": -1
    }, 
    {
      "op": "Activation", 
      "param": {"act_type": "sigmoid"}, 
      "name": "activation110", 
      "inputs": [[369, 0]], 
      "backward_source_id": -1
    }, 
    {
      "op": "Activation", 
      "param": {"act_type": "tanh"}, 
      "name": "activation111", 
      "inputs": [[369, 1]], 
      "backward_source_id": -1
    }, 
    {
      "op": "_Mul", 
      "param": {}, 
      "name": "_mul67", 
      "inputs": [[373, 0], [374, 0]], 
      "backward_source_id": -1
    }, 
    {
      "op": "_Plus", 
      "param": {}, 
      "name": "_plus45", 
      "inputs": [[372, 0], [375, 0]], 
      "backward_source_id": -1
    }, 
    {
      "op": "Activation", 
      "param": {"act_type": "tanh"}, 
      "name": "activation114", 
      "inputs": [[376, 0]], 
      "backward_source_id": -1
    }, 
    {
      "op": "_Mul", 
      "param": {}, 
      "name": "_mul68", 
      "inputs": [[370, 0], [377, 0]], 
      "backward_source_id": -1
    }, 
    {
      "op": "Dropout", 
      "param": {"p": "0.2"}, 
      "name": "dropout22", 
      "inputs": [[378, 0]], 
      "backward_source_id": -1
    }, 
    {
      "op": "FullyConnected", 
      "param": {
        "no_bias": "False", 
        "num_hidden": "2048"
      }, 
      "name": "t7_l2_i2h", 
      "inputs": [[379, 0], [43, 0], [44, 0]], 
      "backward_source_id": -1
    }, 
    {
      "op": "FullyConnected", 
      "param": {
        "no_bias": "False", 
        "num_hidden": "2048"
      }, 
      "name": "t7_l2_h2h", 
      "inputs": [[345, 0], [47, 0], [48, 0]], 
      "backward_source_id": -1
    }, 
    {
      "op": "_Plus", 
      "param": {}, 
      "name": "_plus46", 
      "inputs": [[380, 0], [381, 0]], 
      "backward_source_id": -1
    }, 
    {
      "op": "SliceChannel", 
      "param": {
        "axis": "1", 
        "num_outputs": "4", 
        "squeeze_axis": "False"
      }, 
      "name": "t7_l2_slice", 
      "inputs": [[382, 0]], 
      "backward_source_id": -1
    }, 
    {
      "op": "Activation", 
      "param": {"act_type": "sigmoid"}, 
      "name": "activation118", 
      "inputs": [[383, 3]], 
      "backward_source_id": -1
    }, 
    {
      "op": "Activation", 
      "param": {"act_type": "sigmoid"}, 
      "name": "activation117", 
      "inputs": [[383, 2]], 
      "backward_source_id": -1
    }, 
    {
      "op": "_Mul", 
      "param": {}, 
      "name": "_mul69", 
      "inputs": [[385, 0], [343, 0]], 
      "backward_source_id": -1
    }, 
    {
      "op": "Activation", 
      "param": {"act_type": "sigmoid"}, 
      "name": "activation115", 
      "inputs": [[383, 0]], 
      "backward_source_id": -1
    }, 
    {
      "op": "Activation", 
      "param": {"act_type": "tanh"}, 
      "name": "activation116", 
      "inputs": [[383, 1]], 
      "backward_source_id": -1
    }, 
    {
      "op": "_Mul", 
      "param": {}, 
      "name": "_mul70", 
      "inputs": [[387, 0], [388, 0]], 
      "backward_source_id": -1
    }, 
    {
      "op": "_Plus", 
      "param": {}, 
      "name": "_plus47", 
      "inputs": [[386, 0], [389, 0]], 
      "backward_source_id": -1
    }, 
    {
      "op": "Activation", 
      "param": {"act_type": "tanh"}, 
      "name": "activation119", 
      "inputs": [[390, 0]], 
      "backward_source_id": -1
    }, 
    {
      "op": "_Mul", 
      "param": {}, 
      "name": "_mul71", 
      "inputs": [[384, 0], [391, 0]], 
      "backward_source_id": -1
    }, 
    {
      "op": "Dropout", 
      "param": {"p": "0.2"}, 
      "name": "dropout23", 
      "inputs": [[392, 0]], 
      "backward_source_id": -1
    }, 
    {
      "op": "FullyConnected", 
      "param": {
        "no_bias": "False", 
        "num_hidden": "84"
      }, 
      "name": "fullyconnected7", 
      "inputs": [[393, 0], [63, 0], [64, 0]], 
      "backward_source_id": -1
    }, 
    {
      "op": "null", 
      "param": {}, 
      "name": "label/7", 
      "inputs": [], 
      "backward_source_id": -1
    }, 
    {
      "op": "SoftmaxOutput", 
      "param": {
        "grad_scale": "1", 
        "ignore_label": "-1", 
        "multi_output": "False", 
        "normalization": "null", 
        "out_grad": "False", 
        "preserve_shape": "False", 
        "use_ignore": "False"
      }, 
      "name": "t7_sm", 
      "inputs": [[394, 0], [395, 0]], 
      "backward_source_id": -1
    }, 
    {
      "op": "null", 
      "param": {}, 
      "name": "data/8", 
      "inputs": [], 
      "backward_source_id": -1
    }, 
    {
      "op": "Embedding", 
      "param": {
        "input_dim": "84", 
        "output_dim": "256"
      }, 
      "name": "t8_embed", 
      "inputs": [[397, 0], [1, 0]], 
      "backward_source_id": -1
    }, 
    {
      "op": "FullyConnected", 
      "param": {
        "no_bias": "False", 
        "num_hidden": "2048"
      }, 
      "name": "t8_l0_i2h", 
      "inputs": [[398, 0], [3, 0], [4, 0]], 
      "backward_source_id": -1
    }, 
    {
      "op": "FullyConnected", 
      "param": {
        "no_bias": "False", 
        "num_hidden": "2048"
      }, 
      "name": "t8_l0_h2h", 
      "inputs": [[364, 0], [7, 0], [8, 0]], 
      "backward_source_id": -1
    }, 
    {
      "op": "_Plus", 
      "param": {}, 
      "name": "_plus48", 
      "inputs": [[399, 0], [400, 0]], 
      "backward_source_id": -1
    }, 
    {
      "op": "SliceChannel", 
      "param": {
        "axis": "1", 
        "num_outputs": "4", 
        "squeeze_axis": "False"
      }, 
      "name": "t8_l0_slice", 
      "inputs": [[401, 0]], 
      "backward_source_id": -1
    }, 
    {
      "op": "Activation", 
      "param": {"act_type": "sigmoid"}, 
      "name": "activation123", 
      "inputs": [[402, 3]], 
      "backward_source_id": -1
    }, 
    {
      "op": "Activation", 
      "param": {"act_type": "sigmoid"}, 
      "name": "activation122", 
      "inputs": [[402, 2]], 
      "backward_source_id": -1
    }, 
    {
      "op": "_Mul", 
      "param": {}, 
      "name": "_mul72", 
      "inputs": [[404, 0], [362, 0]], 
      "backward_source_id": -1
    }, 
    {
      "op": "Activation", 
      "param": {"act_type": "sigmoid"}, 
      "name": "activation120", 
      "inputs": [[402, 0]], 
      "backward_source_id": -1
    }, 
    {
      "op": "Activation", 
      "param": {"act_type": "tanh"}, 
      "name": "activation121", 
      "inputs": [[402, 1]], 
      "backward_source_id": -1
    }, 
    {
      "op": "_Mul", 
      "param": {}, 
      "name": "_mul73", 
      "inputs": [[406, 0], [407, 0]], 
      "backward_source_id": -1
    }, 
    {
      "op": "_Plus", 
      "param": {}, 
      "name": "_plus49", 
      "inputs": [[405, 0], [408, 0]], 
      "backward_source_id": -1
    }, 
    {
      "op": "Activation", 
      "param": {"act_type": "tanh"}, 
      "name": "activation124", 
      "inputs": [[409, 0]], 
      "backward_source_id": -1
    }, 
    {
      "op": "_Mul", 
      "param": {}, 
      "name": "_mul74", 
      "inputs": [[403, 0], [410, 0]], 
      "backward_source_id": -1
    }, 
    {
      "op": "Dropout", 
      "param": {"p": "0.2"}, 
      "name": "dropout24", 
      "inputs": [[411, 0]], 
      "backward_source_id": -1
    }, 
    {
      "op": "FullyConnected", 
      "param": {
        "no_bias": "False", 
        "num_hidden": "2048"
      }, 
      "name": "t8_l1_i2h", 
      "inputs": [[412, 0], [23, 0], [24, 0]], 
      "backward_source_id": -1
    }, 
    {
      "op": "FullyConnected", 
      "param": {
        "no_bias": "False", 
        "num_hidden": "2048"
      }, 
      "name": "t8_l1_h2h", 
      "inputs": [[378, 0], [27, 0], [28, 0]], 
      "backward_source_id": -1
    }, 
    {
      "op": "_Plus", 
      "param": {}, 
      "name": "_plus50", 
      "inputs": [[413, 0], [414, 0]], 
      "backward_source_id": -1
    }, 
    {
      "op": "SliceChannel", 
      "param": {
        "axis": "1", 
        "num_outputs": "4", 
        "squeeze_axis": "False"
      }, 
      "name": "t8_l1_slice", 
      "inputs": [[415, 0]], 
      "backward_source_id": -1
    }, 
    {
      "op": "Activation", 
      "param": {"act_type": "sigmoid"}, 
      "name": "activation128", 
      "inputs": [[416, 3]], 
      "backward_source_id": -1
    }, 
    {
      "op": "Activation", 
      "param": {"act_type": "sigmoid"}, 
      "name": "activation127", 
      "inputs": [[416, 2]], 
      "backward_source_id": -1
    }, 
    {
      "op": "_Mul", 
      "param": {}, 
      "name": "_mul75", 
      "inputs": [[418, 0], [376, 0]], 
      "backward_source_id": -1
    }, 
    {
      "op": "Activation", 
      "param": {"act_type": "sigmoid"}, 
      "name": "activation125", 
      "inputs": [[416, 0]], 
      "backward_source_id": -1
    }, 
    {
      "op": "Activation", 
      "param": {"act_type": "tanh"}, 
      "name": "activation126", 
      "inputs": [[416, 1]], 
      "backward_source_id": -1
    }, 
    {
      "op": "_Mul", 
      "param": {}, 
      "name": "_mul76", 
      "inputs": [[420, 0], [421, 0]], 
      "backward_source_id": -1
    }, 
    {
      "op": "_Plus", 
      "param": {}, 
      "name": "_plus51", 
      "inputs": [[419, 0], [422, 0]], 
      "backward_source_id": -1
    }, 
    {
      "op": "Activation", 
      "param": {"act_type": "tanh"}, 
      "name": "activation129", 
      "inputs": [[423, 0]], 
      "backward_source_id": -1
    }, 
    {
      "op": "_Mul", 
      "param": {}, 
      "name": "_mul77", 
      "inputs": [[417, 0], [424, 0]], 
      "backward_source_id": -1
    }, 
    {
      "op": "Dropout", 
      "param": {"p": "0.2"}, 
      "name": "dropout25", 
      "inputs": [[425, 0]], 
      "backward_source_id": -1
    }, 
    {
      "op": "FullyConnected", 
      "param": {
        "no_bias": "False", 
        "num_hidden": "2048"
      }, 
      "name": "t8_l2_i2h", 
      "inputs": [[426, 0], [43, 0], [44, 0]], 
      "backward_source_id": -1
    }, 
    {
      "op": "FullyConnected", 
      "param": {
        "no_bias": "False", 
        "num_hidden": "2048"
      }, 
      "name": "t8_l2_h2h", 
      "inputs": [[392, 0], [47, 0], [48, 0]], 
      "backward_source_id": -1
    }, 
    {
      "op": "_Plus", 
      "param": {}, 
      "name": "_plus52", 
      "inputs": [[427, 0], [428, 0]], 
      "backward_source_id": -1
    }, 
    {
      "op": "SliceChannel", 
      "param": {
        "axis": "1", 
        "num_outputs": "4", 
        "squeeze_axis": "False"
      }, 
      "name": "t8_l2_slice", 
      "inputs": [[429, 0]], 
      "backward_source_id": -1
    }, 
    {
      "op": "Activation", 
      "param": {"act_type": "sigmoid"}, 
      "name": "activation133", 
      "inputs": [[430, 3]], 
      "backward_source_id": -1
    }, 
    {
      "op": "Activation", 
      "param": {"act_type": "sigmoid"}, 
      "name": "activation132", 
      "inputs": [[430, 2]], 
      "backward_source_id": -1
    }, 
    {
      "op": "_Mul", 
      "param": {}, 
      "name": "_mul78", 
      "inputs": [[432, 0], [390, 0]], 
      "backward_source_id": -1
    }, 
    {
      "op": "Activation", 
      "param": {"act_type": "sigmoid"}, 
      "name": "activation130", 
      "inputs": [[430, 0]], 
      "backward_source_id": -1
    }, 
    {
      "op": "Activation", 
      "param": {"act_type": "tanh"}, 
      "name": "activation131", 
      "inputs": [[430, 1]], 
      "backward_source_id": -1
    }, 
    {
      "op": "_Mul", 
      "param": {}, 
      "name": "_mul79", 
      "inputs": [[434, 0], [435, 0]], 
      "backward_source_id": -1
    }, 
    {
      "op": "_Plus", 
      "param": {}, 
      "name": "_plus53", 
      "inputs": [[433, 0], [436, 0]], 
      "backward_source_id": -1
    }, 
    {
      "op": "Activation", 
      "param": {"act_type": "tanh"}, 
      "name": "activation134", 
      "inputs": [[437, 0]], 
      "backward_source_id": -1
    }, 
    {
      "op": "_Mul", 
      "param": {}, 
      "name": "_mul80", 
      "inputs": [[431, 0], [438, 0]], 
      "backward_source_id": -1
    }, 
    {
      "op": "Dropout", 
      "param": {"p": "0.2"}, 
      "name": "dropout26", 
      "inputs": [[439, 0]], 
      "backward_source_id": -1
    }, 
    {
      "op": "FullyConnected", 
      "param": {
        "no_bias": "False", 
        "num_hidden": "84"
      }, 
      "name": "fullyconnected8", 
      "inputs": [[440, 0], [63, 0], [64, 0]], 
      "backward_source_id": -1
    }, 
    {
      "op": "null", 
      "param": {}, 
      "name": "label/8", 
      "inputs": [], 
      "backward_source_id": -1
    }, 
    {
      "op": "SoftmaxOutput", 
      "param": {
        "grad_scale": "1", 
        "ignore_label": "-1", 
        "multi_output": "False", 
        "normalization": "null", 
        "out_grad": "False", 
        "preserve_shape": "False", 
        "use_ignore": "False"
      }, 
      "name": "t8_sm", 
      "inputs": [[441, 0], [442, 0]], 
      "backward_source_id": -1
    }, 
    {
      "op": "null", 
      "param": {}, 
      "name": "data/9", 
      "inputs": [], 
      "backward_source_id": -1
    }, 
    {
      "op": "Embedding", 
      "param": {
        "input_dim": "84", 
        "output_dim": "256"
      }, 
      "name": "t9_embed", 
      "inputs": [[444, 0], [1, 0]], 
      "backward_source_id": -1
    }, 
    {
      "op": "FullyConnected", 
      "param": {
        "no_bias": "False", 
        "num_hidden": "2048"
      }, 
      "name": "t9_l0_i2h", 
      "inputs": [[445, 0], [3, 0], [4, 0]], 
      "backward_source_id": -1
    }, 
    {
      "op": "FullyConnected", 
      "param": {
        "no_bias": "False", 
        "num_hidden": "2048"
      }, 
      "name": "t9_l0_h2h", 
      "inputs": [[411, 0], [7, 0], [8, 0]], 
      "backward_source_id": -1
    }, 
    {
      "op": "_Plus", 
      "param": {}, 
      "name": "_plus54", 
      "inputs": [[446, 0], [447, 0]], 
      "backward_source_id": -1
    }, 
    {
      "op": "SliceChannel", 
      "param": {
        "axis": "1", 
        "num_outputs": "4", 
        "squeeze_axis": "False"
      }, 
      "name": "t9_l0_slice", 
      "inputs": [[448, 0]], 
      "backward_source_id": -1
    }, 
    {
      "op": "Activation", 
      "param": {"act_type": "sigmoid"}, 
      "name": "activation138", 
      "inputs": [[449, 3]], 
      "backward_source_id": -1
    }, 
    {
      "op": "Activation", 
      "param": {"act_type": "sigmoid"}, 
      "name": "activation137", 
      "inputs": [[449, 2]], 
      "backward_source_id": -1
    }, 
    {
      "op": "_Mul", 
      "param": {}, 
      "name": "_mul81", 
      "inputs": [[451, 0], [409, 0]], 
      "backward_source_id": -1
    }, 
    {
      "op": "Activation", 
      "param": {"act_type": "sigmoid"}, 
      "name": "activation135", 
      "inputs": [[449, 0]], 
      "backward_source_id": -1
    }, 
    {
      "op": "Activation", 
      "param": {"act_type": "tanh"}, 
      "name": "activation136", 
      "inputs": [[449, 1]], 
      "backward_source_id": -1
    }, 
    {
      "op": "_Mul", 
      "param": {}, 
      "name": "_mul82", 
      "inputs": [[453, 0], [454, 0]], 
      "backward_source_id": -1
    }, 
    {
      "op": "_Plus", 
      "param": {}, 
      "name": "_plus55", 
      "inputs": [[452, 0], [455, 0]], 
      "backward_source_id": -1
    }, 
    {
      "op": "Activation", 
      "param": {"act_type": "tanh"}, 
      "name": "activation139", 
      "inputs": [[456, 0]], 
      "backward_source_id": -1
    }, 
    {
      "op": "_Mul", 
      "param": {}, 
      "name": "_mul83", 
      "inputs": [[450, 0], [457, 0]], 
      "backward_source_id": -1
    }, 
    {
      "op": "Dropout", 
      "param": {"p": "0.2"}, 
      "name": "dropout27", 
      "inputs": [[458, 0]], 
      "backward_source_id": -1
    }, 
    {
      "op": "FullyConnected", 
      "param": {
        "no_bias": "False", 
        "num_hidden": "2048"
      }, 
      "name": "t9_l1_i2h", 
      "inputs": [[459, 0], [23, 0], [24, 0]], 
      "backward_source_id": -1
    }, 
    {
      "op": "FullyConnected", 
      "param": {
        "no_bias": "False", 
        "num_hidden": "2048"
      }, 
      "name": "t9_l1_h2h", 
      "inputs": [[425, 0], [27, 0], [28, 0]], 
      "backward_source_id": -1
    }, 
    {
      "op": "_Plus", 
      "param": {}, 
      "name": "_plus56", 
      "inputs": [[460, 0], [461, 0]], 
      "backward_source_id": -1
    }, 
    {
      "op": "SliceChannel", 
      "param": {
        "axis": "1", 
        "num_outputs": "4", 
        "squeeze_axis": "False"
      }, 
      "name": "t9_l1_slice", 
      "inputs": [[462, 0]], 
      "backward_source_id": -1
    }, 
    {
      "op": "Activation", 
      "param": {"act_type": "sigmoid"}, 
      "name": "activation143", 
      "inputs": [[463, 3]], 
      "backward_source_id": -1
    }, 
    {
      "op": "Activation", 
      "param": {"act_type": "sigmoid"}, 
      "name": "activation142", 
      "inputs": [[463, 2]], 
      "backward_source_id": -1
    }, 
    {
      "op": "_Mul", 
      "param": {}, 
      "name": "_mul84", 
      "inputs": [[465, 0], [423, 0]], 
      "backward_source_id": -1
    }, 
    {
      "op": "Activation", 
      "param": {"act_type": "sigmoid"}, 
      "name": "activation140", 
      "inputs": [[463, 0]], 
      "backward_source_id": -1
    }, 
    {
      "op": "Activation", 
      "param": {"act_type": "tanh"}, 
      "name": "activation141", 
      "inputs": [[463, 1]], 
      "backward_source_id": -1
    }, 
    {
      "op": "_Mul", 
      "param": {}, 
      "name": "_mul85", 
      "inputs": [[467, 0], [468, 0]], 
      "backward_source_id": -1
    }, 
    {
      "op": "_Plus", 
      "param": {}, 
      "name": "_plus57", 
      "inputs": [[466, 0], [469, 0]], 
      "backward_source_id": -1
    }, 
    {
      "op": "Activation", 
      "param": {"act_type": "tanh"}, 
      "name": "activation144", 
      "inputs": [[470, 0]], 
      "backward_source_id": -1
    }, 
    {
      "op": "_Mul", 
      "param": {}, 
      "name": "_mul86", 
      "inputs": [[464, 0], [471, 0]], 
      "backward_source_id": -1
    }, 
    {
      "op": "Dropout", 
      "param": {"p": "0.2"}, 
      "name": "dropout28", 
      "inputs": [[472, 0]], 
      "backward_source_id": -1
    }, 
    {
      "op": "FullyConnected", 
      "param": {
        "no_bias": "False", 
        "num_hidden": "2048"
      }, 
      "name": "t9_l2_i2h", 
      "inputs": [[473, 0], [43, 0], [44, 0]], 
      "backward_source_id": -1
    }, 
    {
      "op": "FullyConnected", 
      "param": {
        "no_bias": "False", 
        "num_hidden": "2048"
      }, 
      "name": "t9_l2_h2h", 
      "inputs": [[439, 0], [47, 0], [48, 0]], 
      "backward_source_id": -1
    }, 
    {
      "op": "_Plus", 
      "param": {}, 
      "name": "_plus58", 
      "inputs": [[474, 0], [475, 0]], 
      "backward_source_id": -1
    }, 
    {
      "op": "SliceChannel", 
      "param": {
        "axis": "1", 
        "num_outputs": "4", 
        "squeeze_axis": "False"
      }, 
      "name": "t9_l2_slice", 
      "inputs": [[476, 0]], 
      "backward_source_id": -1
    }, 
    {
      "op": "Activation", 
      "param": {"act_type": "sigmoid"}, 
      "name": "activation148", 
      "inputs": [[477, 3]], 
      "backward_source_id": -1
    }, 
    {
      "op": "Activation", 
      "param": {"act_type": "sigmoid"}, 
      "name": "activation147", 
      "inputs": [[477, 2]], 
      "backward_source_id": -1
    }, 
    {
      "op": "_Mul", 
      "param": {}, 
      "name": "_mul87", 
      "inputs": [[479, 0], [437, 0]], 
      "backward_source_id": -1
    }, 
    {
      "op": "Activation", 
      "param": {"act_type": "sigmoid"}, 
      "name": "activation145", 
      "inputs": [[477, 0]], 
      "backward_source_id": -1
    }, 
    {
      "op": "Activation", 
      "param": {"act_type": "tanh"}, 
      "name": "activation146", 
      "inputs": [[477, 1]], 
      "backward_source_id": -1
    }, 
    {
      "op": "_Mul", 
      "param": {}, 
      "name": "_mul88", 
      "inputs": [[481, 0], [482, 0]], 
      "backward_source_id": -1
    }, 
    {
      "op": "_Plus", 
      "param": {}, 
      "name": "_plus59", 
      "inputs": [[480, 0], [483, 0]], 
      "backward_source_id": -1
    }, 
    {
      "op": "Activation", 
      "param": {"act_type": "tanh"}, 
      "name": "activation149", 
      "inputs": [[484, 0]], 
      "backward_source_id": -1
    }, 
    {
      "op": "_Mul", 
      "param": {}, 
      "name": "_mul89", 
      "inputs": [[478, 0], [485, 0]], 
      "backward_source_id": -1
    }, 
    {
      "op": "Dropout", 
      "param": {"p": "0.2"}, 
      "name": "dropout29", 
      "inputs": [[486, 0]], 
      "backward_source_id": -1
    }, 
    {
      "op": "FullyConnected", 
      "param": {
        "no_bias": "False", 
        "num_hidden": "84"
      }, 
      "name": "fullyconnected9", 
      "inputs": [[487, 0], [63, 0], [64, 0]], 
      "backward_source_id": -1
    }, 
    {
      "op": "null", 
      "param": {}, 
      "name": "label/9", 
      "inputs": [], 
      "backward_source_id": -1
    }, 
    {
      "op": "SoftmaxOutput", 
      "param": {
        "grad_scale": "1", 
        "ignore_label": "-1", 
        "multi_output": "False", 
        "normalization": "null", 
        "out_grad": "False", 
        "preserve_shape": "False", 
        "use_ignore": "False"
      }, 
      "name": "t9_sm", 
      "inputs": [[488, 0], [489, 0]], 
      "backward_source_id": -1
    }, 
    {
      "op": "null", 
      "param": {}, 
      "name": "data/10", 
      "inputs": [], 
      "backward_source_id": -1
    }, 
    {
      "op": "Embedding", 
      "param": {
        "input_dim": "84", 
        "output_dim": "256"
      }, 
      "name": "t10_embed", 
      "inputs": [[491, 0], [1, 0]], 
      "backward_source_id": -1
    }, 
    {
      "op": "FullyConnected", 
      "param": {
        "no_bias": "False", 
        "num_hidden": "2048"
      }, 
      "name": "t10_l0_i2h", 
      "inputs": [[492, 0], [3, 0], [4, 0]], 
      "backward_source_id": -1
    }, 
    {
      "op": "FullyConnected", 
      "param": {
        "no_bias": "False", 
        "num_hidden": "2048"
      }, 
      "name": "t10_l0_h2h", 
      "inputs": [[458, 0], [7, 0], [8, 0]], 
      "backward_source_id": -1
    }, 
    {
      "op": "_Plus", 
      "param": {}, 
      "name": "_plus60", 
      "inputs": [[493, 0], [494, 0]], 
      "backward_source_id": -1
    }, 
    {
      "op": "SliceChannel", 
      "param": {
        "axis": "1", 
        "num_outputs": "4", 
        "squeeze_axis": "False"
      }, 
      "name": "t10_l0_slice", 
      "inputs": [[495, 0]], 
      "backward_source_id": -1
    }, 
    {
      "op": "Activation", 
      "param": {"act_type": "sigmoid"}, 
      "name": "activation153", 
      "inputs": [[496, 3]], 
      "backward_source_id": -1
    }, 
    {
      "op": "Activation", 
      "param": {"act_type": "sigmoid"}, 
      "name": "activation152", 
      "inputs": [[496, 2]], 
      "backward_source_id": -1
    }, 
    {
      "op": "_Mul", 
      "param": {}, 
      "name": "_mul90", 
      "inputs": [[498, 0], [456, 0]], 
      "backward_source_id": -1
    }, 
    {
      "op": "Activation", 
      "param": {"act_type": "sigmoid"}, 
      "name": "activation150", 
      "inputs": [[496, 0]], 
      "backward_source_id": -1
    }, 
    {
      "op": "Activation", 
      "param": {"act_type": "tanh"}, 
      "name": "activation151", 
      "inputs": [[496, 1]], 
      "backward_source_id": -1
    }, 
    {
      "op": "_Mul", 
      "param": {}, 
      "name": "_mul91", 
      "inputs": [[500, 0], [501, 0]], 
      "backward_source_id": -1
    }, 
    {
      "op": "_Plus", 
      "param": {}, 
      "name": "_plus61", 
      "inputs": [[499, 0], [502, 0]], 
      "backward_source_id": -1
    }, 
    {
      "op": "Activation", 
      "param": {"act_type": "tanh"}, 
      "name": "activation154", 
      "inputs": [[503, 0]], 
      "backward_source_id": -1
    }, 
    {
      "op": "_Mul", 
      "param": {}, 
      "name": "_mul92", 
      "inputs": [[497, 0], [504, 0]], 
      "backward_source_id": -1
    }, 
    {
      "op": "Dropout", 
      "param": {"p": "0.2"}, 
      "name": "dropout30", 
      "inputs": [[505, 0]], 
      "backward_source_id": -1
    }, 
    {
      "op": "FullyConnected", 
      "param": {
        "no_bias": "False", 
        "num_hidden": "2048"
      }, 
      "name": "t10_l1_i2h", 
      "inputs": [[506, 0], [23, 0], [24, 0]], 
      "backward_source_id": -1
    }, 
    {
      "op": "FullyConnected", 
      "param": {
        "no_bias": "False", 
        "num_hidden": "2048"
      }, 
      "name": "t10_l1_h2h", 
      "inputs": [[472, 0], [27, 0], [28, 0]], 
      "backward_source_id": -1
    }, 
    {
      "op": "_Plus", 
      "param": {}, 
      "name": "_plus62", 
      "inputs": [[507, 0], [508, 0]], 
      "backward_source_id": -1
    }, 
    {
      "op": "SliceChannel", 
      "param": {
        "axis": "1", 
        "num_outputs": "4", 
        "squeeze_axis": "False"
      }, 
      "name": "t10_l1_slice", 
      "inputs": [[509, 0]], 
      "backward_source_id": -1
    }, 
    {
      "op": "Activation", 
      "param": {"act_type": "sigmoid"}, 
      "name": "activation158", 
      "inputs": [[510, 3]], 
      "backward_source_id": -1
    }, 
    {
      "op": "Activation", 
      "param": {"act_type": "sigmoid"}, 
      "name": "activation157", 
      "inputs": [[510, 2]], 
      "backward_source_id": -1
    }, 
    {
      "op": "_Mul", 
      "param": {}, 
      "name": "_mul93", 
      "inputs": [[512, 0], [470, 0]], 
      "backward_source_id": -1
    }, 
    {
      "op": "Activation", 
      "param": {"act_type": "sigmoid"}, 
      "name": "activation155", 
      "inputs": [[510, 0]], 
      "backward_source_id": -1
    }, 
    {
      "op": "Activation", 
      "param": {"act_type": "tanh"}, 
      "name": "activation156", 
      "inputs": [[510, 1]], 
      "backward_source_id": -1
    }, 
    {
      "op": "_Mul", 
      "param": {}, 
      "name": "_mul94", 
      "inputs": [[514, 0], [515, 0]], 
      "backward_source_id": -1
    }, 
    {
      "op": "_Plus", 
      "param": {}, 
      "name": "_plus63", 
      "inputs": [[513, 0], [516, 0]], 
      "backward_source_id": -1
    }, 
    {
      "op": "Activation", 
      "param": {"act_type": "tanh"}, 
      "name": "activation159", 
      "inputs": [[517, 0]], 
      "backward_source_id": -1
    }, 
    {
      "op": "_Mul", 
      "param": {}, 
      "name": "_mul95", 
      "inputs": [[511, 0], [518, 0]], 
      "backward_source_id": -1
    }, 
    {
      "op": "Dropout", 
      "param": {"p": "0.2"}, 
      "name": "dropout31", 
      "inputs": [[519, 0]], 
      "backward_source_id": -1
    }, 
    {
      "op": "FullyConnected", 
      "param": {
        "no_bias": "False", 
        "num_hidden": "2048"
      }, 
      "name": "t10_l2_i2h", 
      "inputs": [[520, 0], [43, 0], [44, 0]], 
      "backward_source_id": -1
    }, 
    {
      "op": "FullyConnected", 
      "param": {
        "no_bias": "False", 
        "num_hidden": "2048"
      }, 
      "name": "t10_l2_h2h", 
      "inputs": [[486, 0], [47, 0], [48, 0]], 
      "backward_source_id": -1
    }, 
    {
      "op": "_Plus", 
      "param": {}, 
      "name": "_plus64", 
      "inputs": [[521, 0], [522, 0]], 
      "backward_source_id": -1
    }, 
    {
      "op": "SliceChannel", 
      "param": {
        "axis": "1", 
        "num_outputs": "4", 
        "squeeze_axis": "False"
      }, 
      "name": "t10_l2_slice", 
      "inputs": [[523, 0]], 
      "backward_source_id": -1
    }, 
    {
      "op": "Activation", 
      "param": {"act_type": "sigmoid"}, 
      "name": "activation163", 
      "inputs": [[524, 3]], 
      "backward_source_id": -1
    }, 
    {
      "op": "Activation", 
      "param": {"act_type": "sigmoid"}, 
      "name": "activation162", 
      "inputs": [[524, 2]], 
      "backward_source_id": -1
    }, 
    {
      "op": "_Mul", 
      "param": {}, 
      "name": "_mul96", 
      "inputs": [[526, 0], [484, 0]], 
      "backward_source_id": -1
    }, 
    {
      "op": "Activation", 
      "param": {"act_type": "sigmoid"}, 
      "name": "activation160", 
      "inputs": [[524, 0]], 
      "backward_source_id": -1
    }, 
    {
      "op": "Activation", 
      "param": {"act_type": "tanh"}, 
      "name": "activation161", 
      "inputs": [[524, 1]], 
      "backward_source_id": -1
    }, 
    {
      "op": "_Mul", 
      "param": {}, 
      "name": "_mul97", 
      "inputs": [[528, 0], [529, 0]], 
      "backward_source_id": -1
    }, 
    {
      "op": "_Plus", 
      "param": {}, 
      "name": "_plus65", 
      "inputs": [[527, 0], [530, 0]], 
      "backward_source_id": -1
    }, 
    {
      "op": "Activation", 
      "param": {"act_type": "tanh"}, 
      "name": "activation164", 
      "inputs": [[531, 0]], 
      "backward_source_id": -1
    }, 
    {
      "op": "_Mul", 
      "param": {}, 
      "name": "_mul98", 
      "inputs": [[525, 0], [532, 0]], 
      "backward_source_id": -1
    }, 
    {
      "op": "Dropout", 
      "param": {"p": "0.2"}, 
      "name": "dropout32", 
      "inputs": [[533, 0]], 
      "backward_source_id": -1
    }, 
    {
      "op": "FullyConnected", 
      "param": {
        "no_bias": "False", 
        "num_hidden": "84"
      }, 
      "name": "fullyconnected10", 
      "inputs": [[534, 0], [63, 0], [64, 0]], 
      "backward_source_id": -1
    }, 
    {
      "op": "null", 
      "param": {}, 
      "name": "label/10", 
      "inputs": [], 
      "backward_source_id": -1
    }, 
    {
      "op": "SoftmaxOutput", 
      "param": {
        "grad_scale": "1", 
        "ignore_label": "-1", 
        "multi_output": "False", 
        "normalization": "null", 
        "out_grad": "False", 
        "preserve_shape": "False", 
        "use_ignore": "False"
      }, 
      "name": "t10_sm", 
      "inputs": [[535, 0], [536, 0]], 
      "backward_source_id": -1
    }, 
    {
      "op": "null", 
      "param": {}, 
      "name": "data/11", 
      "inputs": [], 
      "backward_source_id": -1
    }, 
    {
      "op": "Embedding", 
      "param": {
        "input_dim": "84", 
        "output_dim": "256"
      }, 
      "name": "t11_embed", 
      "inputs": [[538, 0], [1, 0]], 
      "backward_source_id": -1
    }, 
    {
      "op": "FullyConnected", 
      "param": {
        "no_bias": "False", 
        "num_hidden": "2048"
      }, 
      "name": "t11_l0_i2h", 
      "inputs": [[539, 0], [3, 0], [4, 0]], 
      "backward_source_id": -1
    }, 
    {
      "op": "FullyConnected", 
      "param": {
        "no_bias": "False", 
        "num_hidden": "2048"
      }, 
      "name": "t11_l0_h2h", 
      "inputs": [[505, 0], [7, 0], [8, 0]], 
      "backward_source_id": -1
    }, 
    {
      "op": "_Plus", 
      "param": {}, 
      "name": "_plus66", 
      "inputs": [[540, 0], [541, 0]], 
      "backward_source_id": -1
    }, 
    {
      "op": "SliceChannel", 
      "param": {
        "axis": "1", 
        "num_outputs": "4", 
        "squeeze_axis": "False"
      }, 
      "name": "t11_l0_slice", 
      "inputs": [[542, 0]], 
      "backward_source_id": -1
    }, 
    {
      "op": "Activation", 
      "param": {"act_type": "sigmoid"}, 
      "name": "activation168", 
      "inputs": [[543, 3]], 
      "backward_source_id": -1
    }, 
    {
      "op": "Activation", 
      "param": {"act_type": "sigmoid"}, 
      "name": "activation167", 
      "inputs": [[543, 2]], 
      "backward_source_id": -1
    }, 
    {
      "op": "_Mul", 
      "param": {}, 
      "name": "_mul99", 
      "inputs": [[545, 0], [503, 0]], 
      "backward_source_id": -1
    }, 
    {
      "op": "Activation", 
      "param": {"act_type": "sigmoid"}, 
      "name": "activation165", 
      "inputs": [[543, 0]], 
      "backward_source_id": -1
    }, 
    {
      "op": "Activation", 
      "param": {"act_type": "tanh"}, 
      "name": "activation166", 
      "inputs": [[543, 1]], 
      "backward_source_id": -1
    }, 
    {
      "op": "_Mul", 
      "param": {}, 
      "name": "_mul100", 
      "inputs": [[547, 0], [548, 0]], 
      "backward_source_id": -1
    }, 
    {
      "op": "_Plus", 
      "param": {}, 
      "name": "_plus67", 
      "inputs": [[546, 0], [549, 0]], 
      "backward_source_id": -1
    }, 
    {
      "op": "Activation", 
      "param": {"act_type": "tanh"}, 
      "name": "activation169", 
      "inputs": [[550, 0]], 
      "backward_source_id": -1
    }, 
    {
      "op": "_Mul", 
      "param": {}, 
      "name": "_mul101", 
      "inputs": [[544, 0], [551, 0]], 
      "backward_source_id": -1
    }, 
    {
      "op": "Dropout", 
      "param": {"p": "0.2"}, 
      "name": "dropout33", 
      "inputs": [[552, 0]], 
      "backward_source_id": -1
    }, 
    {
      "op": "FullyConnected", 
      "param": {
        "no_bias": "False", 
        "num_hidden": "2048"
      }, 
      "name": "t11_l1_i2h", 
      "inputs": [[553, 0], [23, 0], [24, 0]], 
      "backward_source_id": -1
    }, 
    {
      "op": "FullyConnected", 
      "param": {
        "no_bias": "False", 
        "num_hidden": "2048"
      }, 
      "name": "t11_l1_h2h", 
      "inputs": [[519, 0], [27, 0], [28, 0]], 
      "backward_source_id": -1
    }, 
    {
      "op": "_Plus", 
      "param": {}, 
      "name": "_plus68", 
      "inputs": [[554, 0], [555, 0]], 
      "backward_source_id": -1
    }, 
    {
      "op": "SliceChannel", 
      "param": {
        "axis": "1", 
        "num_outputs": "4", 
        "squeeze_axis": "False"
      }, 
      "name": "t11_l1_slice", 
      "inputs": [[556, 0]], 
      "backward_source_id": -1
    }, 
    {
      "op": "Activation", 
      "param": {"act_type": "sigmoid"}, 
      "name": "activation173", 
      "inputs": [[557, 3]], 
      "backward_source_id": -1
    }, 
    {
      "op": "Activation", 
      "param": {"act_type": "sigmoid"}, 
      "name": "activation172", 
      "inputs": [[557, 2]], 
      "backward_source_id": -1
    }, 
    {
      "op": "_Mul", 
      "param": {}, 
      "name": "_mul102", 
      "inputs": [[559, 0], [517, 0]], 
      "backward_source_id": -1
    }, 
    {
      "op": "Activation", 
      "param": {"act_type": "sigmoid"}, 
      "name": "activation170", 
      "inputs": [[557, 0]], 
      "backward_source_id": -1
    }, 
    {
      "op": "Activation", 
      "param": {"act_type": "tanh"}, 
      "name": "activation171", 
      "inputs": [[557, 1]], 
      "backward_source_id": -1
    }, 
    {
      "op": "_Mul", 
      "param": {}, 
      "name": "_mul103", 
      "inputs": [[561, 0], [562, 0]], 
      "backward_source_id": -1
    }, 
    {
      "op": "_Plus", 
      "param": {}, 
      "name": "_plus69", 
      "inputs": [[560, 0], [563, 0]], 
      "backward_source_id": -1
    }, 
    {
      "op": "Activation", 
      "param": {"act_type": "tanh"}, 
      "name": "activation174", 
      "inputs": [[564, 0]], 
      "backward_source_id": -1
    }, 
    {
      "op": "_Mul", 
      "param": {}, 
      "name": "_mul104", 
      "inputs": [[558, 0], [565, 0]], 
      "backward_source_id": -1
    }, 
    {
      "op": "Dropout", 
      "param": {"p": "0.2"}, 
      "name": "dropout34", 
      "inputs": [[566, 0]], 
      "backward_source_id": -1
    }, 
    {
      "op": "FullyConnected", 
      "param": {
        "no_bias": "False", 
        "num_hidden": "2048"
      }, 
      "name": "t11_l2_i2h", 
      "inputs": [[567, 0], [43, 0], [44, 0]], 
      "backward_source_id": -1
    }, 
    {
      "op": "FullyConnected", 
      "param": {
        "no_bias": "False", 
        "num_hidden": "2048"
      }, 
      "name": "t11_l2_h2h", 
      "inputs": [[533, 0], [47, 0], [48, 0]], 
      "backward_source_id": -1
    }, 
    {
      "op": "_Plus", 
      "param": {}, 
      "name": "_plus70", 
      "inputs": [[568, 0], [569, 0]], 
      "backward_source_id": -1
    }, 
    {
      "op": "SliceChannel", 
      "param": {
        "axis": "1", 
        "num_outputs": "4", 
        "squeeze_axis": "False"
      }, 
      "name": "t11_l2_slice", 
      "inputs": [[570, 0]], 
      "backward_source_id": -1
    }, 
    {
      "op": "Activation", 
      "param": {"act_type": "sigmoid"}, 
      "name": "activation178", 
      "inputs": [[571, 3]], 
      "backward_source_id": -1
    }, 
    {
      "op": "Activation", 
      "param": {"act_type": "sigmoid"}, 
      "name": "activation177", 
      "inputs": [[571, 2]], 
      "backward_source_id": -1
    }, 
    {
      "op": "_Mul", 
      "param": {}, 
      "name": "_mul105", 
      "inputs": [[573, 0], [531, 0]], 
      "backward_source_id": -1
    }, 
    {
      "op": "Activation", 
      "param": {"act_type": "sigmoid"}, 
      "name": "activation175", 
      "inputs": [[571, 0]], 
      "backward_source_id": -1
    }, 
    {
      "op": "Activation", 
      "param": {"act_type": "tanh"}, 
      "name": "activation176", 
      "inputs": [[571, 1]], 
      "backward_source_id": -1
    }, 
    {
      "op": "_Mul", 
      "param": {}, 
      "name": "_mul106", 
      "inputs": [[575, 0], [576, 0]], 
      "backward_source_id": -1
    }, 
    {
      "op": "_Plus", 
      "param": {}, 
      "name": "_plus71", 
      "inputs": [[574, 0], [577, 0]], 
      "backward_source_id": -1
    }, 
    {
      "op": "Activation", 
      "param": {"act_type": "tanh"}, 
      "name": "activation179", 
      "inputs": [[578, 0]], 
      "backward_source_id": -1
    }, 
    {
      "op": "_Mul", 
      "param": {}, 
      "name": "_mul107", 
      "inputs": [[572, 0], [579, 0]], 
      "backward_source_id": -1
    }, 
    {
      "op": "Dropout", 
      "param": {"p": "0.2"}, 
      "name": "dropout35", 
      "inputs": [[580, 0]], 
      "backward_source_id": -1
    }, 
    {
      "op": "FullyConnected", 
      "param": {
        "no_bias": "False", 
        "num_hidden": "84"
      }, 
      "name": "fullyconnected11", 
      "inputs": [[581, 0], [63, 0], [64, 0]], 
      "backward_source_id": -1
    }, 
    {
      "op": "null", 
      "param": {}, 
      "name": "label/11", 
      "inputs": [], 
      "backward_source_id": -1
    }, 
    {
      "op": "SoftmaxOutput", 
      "param": {
        "grad_scale": "1", 
        "ignore_label": "-1", 
        "multi_output": "False", 
        "normalization": "null", 
        "out_grad": "False", 
        "preserve_shape": "False", 
        "use_ignore": "False"
      }, 
      "name": "t11_sm", 
      "inputs": [[582, 0], [583, 0]], 
      "backward_source_id": -1
    }, 
    {
      "op": "null", 
      "param": {}, 
      "name": "data/12", 
      "inputs": [], 
      "backward_source_id": -1
    }, 
    {
      "op": "Embedding", 
      "param": {
        "input_dim": "84", 
        "output_dim": "256"
      }, 
      "name": "t12_embed", 
      "inputs": [[585, 0], [1, 0]], 
      "backward_source_id": -1
    }, 
    {
      "op": "FullyConnected", 
      "param": {
        "no_bias": "False", 
        "num_hidden": "2048"
      }, 
      "name": "t12_l0_i2h", 
      "inputs": [[586, 0], [3, 0], [4, 0]], 
      "backward_source_id": -1
    }, 
    {
      "op": "FullyConnected", 
      "param": {
        "no_bias": "False", 
        "num_hidden": "2048"
      }, 
      "name": "t12_l0_h2h", 
      "inputs": [[552, 0], [7, 0], [8, 0]], 
      "backward_source_id": -1
    }, 
    {
      "op": "_Plus", 
      "param": {}, 
      "name": "_plus72", 
      "inputs": [[587, 0], [588, 0]], 
      "backward_source_id": -1
    }, 
    {
      "op": "SliceChannel", 
      "param": {
        "axis": "1", 
        "num_outputs": "4", 
        "squeeze_axis": "False"
      }, 
      "name": "t12_l0_slice", 
      "inputs": [[589, 0]], 
      "backward_source_id": -1
    }, 
    {
      "op": "Activation", 
      "param": {"act_type": "sigmoid"}, 
      "name": "activation183", 
      "inputs": [[590, 3]], 
      "backward_source_id": -1
    }, 
    {
      "op": "Activation", 
      "param": {"act_type": "sigmoid"}, 
      "name": "activation182", 
      "inputs": [[590, 2]], 
      "backward_source_id": -1
    }, 
    {
      "op": "_Mul", 
      "param": {}, 
      "name": "_mul108", 
      "inputs": [[592, 0], [550, 0]], 
      "backward_source_id": -1
    }, 
    {
      "op": "Activation", 
      "param": {"act_type": "sigmoid"}, 
      "name": "activation180", 
      "inputs": [[590, 0]], 
      "backward_source_id": -1
    }, 
    {
      "op": "Activation", 
      "param": {"act_type": "tanh"}, 
      "name": "activation181", 
      "inputs": [[590, 1]], 
      "backward_source_id": -1
    }, 
    {
      "op": "_Mul", 
      "param": {}, 
      "name": "_mul109", 
      "inputs": [[594, 0], [595, 0]], 
      "backward_source_id": -1
    }, 
    {
      "op": "_Plus", 
      "param": {}, 
      "name": "_plus73", 
      "inputs": [[593, 0], [596, 0]], 
      "backward_source_id": -1
    }, 
    {
      "op": "Activation", 
      "param": {"act_type": "tanh"}, 
      "name": "activation184", 
      "inputs": [[597, 0]], 
      "backward_source_id": -1
    }, 
    {
      "op": "_Mul", 
      "param": {}, 
      "name": "_mul110", 
      "inputs": [[591, 0], [598, 0]], 
      "backward_source_id": -1
    }, 
    {
      "op": "Dropout", 
      "param": {"p": "0.2"}, 
      "name": "dropout36", 
      "inputs": [[599, 0]], 
      "backward_source_id": -1
    }, 
    {
      "op": "FullyConnected", 
      "param": {
        "no_bias": "False", 
        "num_hidden": "2048"
      }, 
      "name": "t12_l1_i2h", 
      "inputs": [[600, 0], [23, 0], [24, 0]], 
      "backward_source_id": -1
    }, 
    {
      "op": "FullyConnected", 
      "param": {
        "no_bias": "False", 
        "num_hidden": "2048"
      }, 
      "name": "t12_l1_h2h", 
      "inputs": [[566, 0], [27, 0], [28, 0]], 
      "backward_source_id": -1
    }, 
    {
      "op": "_Plus", 
      "param": {}, 
      "name": "_plus74", 
      "inputs": [[601, 0], [602, 0]], 
      "backward_source_id": -1
    }, 
    {
      "op": "SliceChannel", 
      "param": {
        "axis": "1", 
        "num_outputs": "4", 
        "squeeze_axis": "False"
      }, 
      "name": "t12_l1_slice", 
      "inputs": [[603, 0]], 
      "backward_source_id": -1
    }, 
    {
      "op": "Activation", 
      "param": {"act_type": "sigmoid"}, 
      "name": "activation188", 
      "inputs": [[604, 3]], 
      "backward_source_id": -1
    }, 
    {
      "op": "Activation", 
      "param": {"act_type": "sigmoid"}, 
      "name": "activation187", 
      "inputs": [[604, 2]], 
      "backward_source_id": -1
    }, 
    {
      "op": "_Mul", 
      "param": {}, 
      "name": "_mul111", 
      "inputs": [[606, 0], [564, 0]], 
      "backward_source_id": -1
    }, 
    {
      "op": "Activation", 
      "param": {"act_type": "sigmoid"}, 
      "name": "activation185", 
      "inputs": [[604, 0]], 
      "backward_source_id": -1
    }, 
    {
      "op": "Activation", 
      "param": {"act_type": "tanh"}, 
      "name": "activation186", 
      "inputs": [[604, 1]], 
      "backward_source_id": -1
    }, 
    {
      "op": "_Mul", 
      "param": {}, 
      "name": "_mul112", 
      "inputs": [[608, 0], [609, 0]], 
      "backward_source_id": -1
    }, 
    {
      "op": "_Plus", 
      "param": {}, 
      "name": "_plus75", 
      "inputs": [[607, 0], [610, 0]], 
      "backward_source_id": -1
    }, 
    {
      "op": "Activation", 
      "param": {"act_type": "tanh"}, 
      "name": "activation189", 
      "inputs": [[611, 0]], 
      "backward_source_id": -1
    }, 
    {
      "op": "_Mul", 
      "param": {}, 
      "name": "_mul113", 
      "inputs": [[605, 0], [612, 0]], 
      "backward_source_id": -1
    }, 
    {
      "op": "Dropout", 
      "param": {"p": "0.2"}, 
      "name": "dropout37", 
      "inputs": [[613, 0]], 
      "backward_source_id": -1
    }, 
    {
      "op": "FullyConnected", 
      "param": {
        "no_bias": "False", 
        "num_hidden": "2048"
      }, 
      "name": "t12_l2_i2h", 
      "inputs": [[614, 0], [43, 0], [44, 0]], 
      "backward_source_id": -1
    }, 
    {
      "op": "FullyConnected", 
      "param": {
        "no_bias": "False", 
        "num_hidden": "2048"
      }, 
      "name": "t12_l2_h2h", 
      "inputs": [[580, 0], [47, 0], [48, 0]], 
      "backward_source_id": -1
    }, 
    {
      "op": "_Plus", 
      "param": {}, 
      "name": "_plus76", 
      "inputs": [[615, 0], [616, 0]], 
      "backward_source_id": -1
    }, 
    {
      "op": "SliceChannel", 
      "param": {
        "axis": "1", 
        "num_outputs": "4", 
        "squeeze_axis": "False"
      }, 
      "name": "t12_l2_slice", 
      "inputs": [[617, 0]], 
      "backward_source_id": -1
    }, 
    {
      "op": "Activation", 
      "param": {"act_type": "sigmoid"}, 
      "name": "activation193", 
      "inputs": [[618, 3]], 
      "backward_source_id": -1
    }, 
    {
      "op": "Activation", 
      "param": {"act_type": "sigmoid"}, 
      "name": "activation192", 
      "inputs": [[618, 2]], 
      "backward_source_id": -1
    }, 
    {
      "op": "_Mul", 
      "param": {}, 
      "name": "_mul114", 
      "inputs": [[620, 0], [578, 0]], 
      "backward_source_id": -1
    }, 
    {
      "op": "Activation", 
      "param": {"act_type": "sigmoid"}, 
      "name": "activation190", 
      "inputs": [[618, 0]], 
      "backward_source_id": -1
    }, 
    {
      "op": "Activation", 
      "param": {"act_type": "tanh"}, 
      "name": "activation191", 
      "inputs": [[618, 1]], 
      "backward_source_id": -1
    }, 
    {
      "op": "_Mul", 
      "param": {}, 
      "name": "_mul115", 
      "inputs": [[622, 0], [623, 0]], 
      "backward_source_id": -1
    }, 
    {
      "op": "_Plus", 
      "param": {}, 
      "name": "_plus77", 
      "inputs": [[621, 0], [624, 0]], 
      "backward_source_id": -1
    }, 
    {
      "op": "Activation", 
      "param": {"act_type": "tanh"}, 
      "name": "activation194", 
      "inputs": [[625, 0]], 
      "backward_source_id": -1
    }, 
    {
      "op": "_Mul", 
      "param": {}, 
      "name": "_mul116", 
      "inputs": [[619, 0], [626, 0]], 
      "backward_source_id": -1
    }, 
    {
      "op": "Dropout", 
      "param": {"p": "0.2"}, 
      "name": "dropout38", 
      "inputs": [[627, 0]], 
      "backward_source_id": -1
    }, 
    {
      "op": "FullyConnected", 
      "param": {
        "no_bias": "False", 
        "num_hidden": "84"
      }, 
      "name": "fullyconnected12", 
      "inputs": [[628, 0], [63, 0], [64, 0]], 
      "backward_source_id": -1
    }, 
    {
      "op": "null", 
      "param": {}, 
      "name": "label/12", 
      "inputs": [], 
      "backward_source_id": -1
    }, 
    {
      "op": "SoftmaxOutput", 
      "param": {
        "grad_scale": "1", 
        "ignore_label": "-1", 
        "multi_output": "False", 
        "normalization": "null", 
        "out_grad": "False", 
        "preserve_shape": "False", 
        "use_ignore": "False"
      }, 
      "name": "t12_sm", 
      "inputs": [[629, 0], [630, 0]], 
      "backward_source_id": -1
    }, 
    {
      "op": "null", 
      "param": {}, 
      "name": "data/13", 
      "inputs": [], 
      "backward_source_id": -1
    }, 
    {
      "op": "Embedding", 
      "param": {
        "input_dim": "84", 
        "output_dim": "256"
      }, 
      "name": "t13_embed", 
      "inputs": [[632, 0], [1, 0]], 
      "backward_source_id": -1
    }, 
    {
      "op": "FullyConnected", 
      "param": {
        "no_bias": "False", 
        "num_hidden": "2048"
      }, 
      "name": "t13_l0_i2h", 
      "inputs": [[633, 0], [3, 0], [4, 0]], 
      "backward_source_id": -1
    }, 
    {
      "op": "FullyConnected", 
      "param": {
        "no_bias": "False", 
        "num_hidden": "2048"
      }, 
      "name": "t13_l0_h2h", 
      "inputs": [[599, 0], [7, 0], [8, 0]], 
      "backward_source_id": -1
    }, 
    {
      "op": "_Plus", 
      "param": {}, 
      "name": "_plus78", 
      "inputs": [[634, 0], [635, 0]], 
      "backward_source_id": -1
    }, 
    {
      "op": "SliceChannel", 
      "param": {
        "axis": "1", 
        "num_outputs": "4", 
        "squeeze_axis": "False"
      }, 
      "name": "t13_l0_slice", 
      "inputs": [[636, 0]], 
      "backward_source_id": -1
    }, 
    {
      "op": "Activation", 
      "param": {"act_type": "sigmoid"}, 
      "name": "activation198", 
      "inputs": [[637, 3]], 
      "backward_source_id": -1
    }, 
    {
      "op": "Activation", 
      "param": {"act_type": "sigmoid"}, 
      "name": "activation197", 
      "inputs": [[637, 2]], 
      "backward_source_id": -1
    }, 
    {
      "op": "_Mul", 
      "param": {}, 
      "name": "_mul117", 
      "inputs": [[639, 0], [597, 0]], 
      "backward_source_id": -1
    }, 
    {
      "op": "Activation", 
      "param": {"act_type": "sigmoid"}, 
      "name": "activation195", 
      "inputs": [[637, 0]], 
      "backward_source_id": -1
    }, 
    {
      "op": "Activation", 
      "param": {"act_type": "tanh"}, 
      "name": "activation196", 
      "inputs": [[637, 1]], 
      "backward_source_id": -1
    }, 
    {
      "op": "_Mul", 
      "param": {}, 
      "name": "_mul118", 
      "inputs": [[641, 0], [642, 0]], 
      "backward_source_id": -1
    }, 
    {
      "op": "_Plus", 
      "param": {}, 
      "name": "_plus79", 
      "inputs": [[640, 0], [643, 0]], 
      "backward_source_id": -1
    }, 
    {
      "op": "Activation", 
      "param": {"act_type": "tanh"}, 
      "name": "activation199", 
      "inputs": [[644, 0]], 
      "backward_source_id": -1
    }, 
    {
      "op": "_Mul", 
      "param": {}, 
      "name": "_mul119", 
      "inputs": [[638, 0], [645, 0]], 
      "backward_source_id": -1
    }, 
    {
      "op": "Dropout", 
      "param": {"p": "0.2"}, 
      "name": "dropout39", 
      "inputs": [[646, 0]], 
      "backward_source_id": -1
    }, 
    {
      "op": "FullyConnected", 
      "param": {
        "no_bias": "False", 
        "num_hidden": "2048"
      }, 
      "name": "t13_l1_i2h", 
      "inputs": [[647, 0], [23, 0], [24, 0]], 
      "backward_source_id": -1
    }, 
    {
      "op": "FullyConnected", 
      "param": {
        "no_bias": "False", 
        "num_hidden": "2048"
      }, 
      "name": "t13_l1_h2h", 
      "inputs": [[613, 0], [27, 0], [28, 0]], 
      "backward_source_id": -1
    }, 
    {
      "op": "_Plus", 
      "param": {}, 
      "name": "_plus80", 
      "inputs": [[648, 0], [649, 0]], 
      "backward_source_id": -1
    }, 
    {
      "op": "SliceChannel", 
      "param": {
        "axis": "1", 
        "num_outputs": "4", 
        "squeeze_axis": "False"
      }, 
      "name": "t13_l1_slice", 
      "inputs": [[650, 0]], 
      "backward_source_id": -1
    }, 
    {
      "op": "Activation", 
      "param": {"act_type": "sigmoid"}, 
      "name": "activation203", 
      "inputs": [[651, 3]], 
      "backward_source_id": -1
    }, 
    {
      "op": "Activation", 
      "param": {"act_type": "sigmoid"}, 
      "name": "activation202", 
      "inputs": [[651, 2]], 
      "backward_source_id": -1
    }, 
    {
      "op": "_Mul", 
      "param": {}, 
      "name": "_mul120", 
      "inputs": [[653, 0], [611, 0]], 
      "backward_source_id": -1
    }, 
    {
      "op": "Activation", 
      "param": {"act_type": "sigmoid"}, 
      "name": "activation200", 
      "inputs": [[651, 0]], 
      "backward_source_id": -1
    }, 
    {
      "op": "Activation", 
      "param": {"act_type": "tanh"}, 
      "name": "activation201", 
      "inputs": [[651, 1]], 
      "backward_source_id": -1
    }, 
    {
      "op": "_Mul", 
      "param": {}, 
      "name": "_mul121", 
      "inputs": [[655, 0], [656, 0]], 
      "backward_source_id": -1
    }, 
    {
      "op": "_Plus", 
      "param": {}, 
      "name": "_plus81", 
      "inputs": [[654, 0], [657, 0]], 
      "backward_source_id": -1
    }, 
    {
      "op": "Activation", 
      "param": {"act_type": "tanh"}, 
      "name": "activation204", 
      "inputs": [[658, 0]], 
      "backward_source_id": -1
    }, 
    {
      "op": "_Mul", 
      "param": {}, 
      "name": "_mul122", 
      "inputs": [[652, 0], [659, 0]], 
      "backward_source_id": -1
    }, 
    {
      "op": "Dropout", 
      "param": {"p": "0.2"}, 
      "name": "dropout40", 
      "inputs": [[660, 0]], 
      "backward_source_id": -1
    }, 
    {
      "op": "FullyConnected", 
      "param": {
        "no_bias": "False", 
        "num_hidden": "2048"
      }, 
      "name": "t13_l2_i2h", 
      "inputs": [[661, 0], [43, 0], [44, 0]], 
      "backward_source_id": -1
    }, 
    {
      "op": "FullyConnected", 
      "param": {
        "no_bias": "False", 
        "num_hidden": "2048"
      }, 
      "name": "t13_l2_h2h", 
      "inputs": [[627, 0], [47, 0], [48, 0]], 
      "backward_source_id": -1
    }, 
    {
      "op": "_Plus", 
      "param": {}, 
      "name": "_plus82", 
      "inputs": [[662, 0], [663, 0]], 
      "backward_source_id": -1
    }, 
    {
      "op": "SliceChannel", 
      "param": {
        "axis": "1", 
        "num_outputs": "4", 
        "squeeze_axis": "False"
      }, 
      "name": "t13_l2_slice", 
      "inputs": [[664, 0]], 
      "backward_source_id": -1
    }, 
    {
      "op": "Activation", 
      "param": {"act_type": "sigmoid"}, 
      "name": "activation208", 
      "inputs": [[665, 3]], 
      "backward_source_id": -1
    }, 
    {
      "op": "Activation", 
      "param": {"act_type": "sigmoid"}, 
      "name": "activation207", 
      "inputs": [[665, 2]], 
      "backward_source_id": -1
    }, 
    {
      "op": "_Mul", 
      "param": {}, 
      "name": "_mul123", 
      "inputs": [[667, 0], [625, 0]], 
      "backward_source_id": -1
    }, 
    {
      "op": "Activation", 
      "param": {"act_type": "sigmoid"}, 
      "name": "activation205", 
      "inputs": [[665, 0]], 
      "backward_source_id": -1
    }, 
    {
      "op": "Activation", 
      "param": {"act_type": "tanh"}, 
      "name": "activation206", 
      "inputs": [[665, 1]], 
      "backward_source_id": -1
    }, 
    {
      "op": "_Mul", 
      "param": {}, 
      "name": "_mul124", 
      "inputs": [[669, 0], [670, 0]], 
      "backward_source_id": -1
    }, 
    {
      "op": "_Plus", 
      "param": {}, 
      "name": "_plus83", 
      "inputs": [[668, 0], [671, 0]], 
      "backward_source_id": -1
    }, 
    {
      "op": "Activation", 
      "param": {"act_type": "tanh"}, 
      "name": "activation209", 
      "inputs": [[672, 0]], 
      "backward_source_id": -1
    }, 
    {
      "op": "_Mul", 
      "param": {}, 
      "name": "_mul125", 
      "inputs": [[666, 0], [673, 0]], 
      "backward_source_id": -1
    }, 
    {
      "op": "Dropout", 
      "param": {"p": "0.2"}, 
      "name": "dropout41", 
      "inputs": [[674, 0]], 
      "backward_source_id": -1
    }, 
    {
      "op": "FullyConnected", 
      "param": {
        "no_bias": "False", 
        "num_hidden": "84"
      }, 
      "name": "fullyconnected13", 
      "inputs": [[675, 0], [63, 0], [64, 0]], 
      "backward_source_id": -1
    }, 
    {
      "op": "null", 
      "param": {}, 
      "name": "label/13", 
      "inputs": [], 
      "backward_source_id": -1
    }, 
    {
      "op": "SoftmaxOutput", 
      "param": {
        "grad_scale": "1", 
        "ignore_label": "-1", 
        "multi_output": "False", 
        "normalization": "null", 
        "out_grad": "False", 
        "preserve_shape": "False", 
        "use_ignore": "False"
      }, 
      "name": "t13_sm", 
      "inputs": [[676, 0], [677, 0]], 
      "backward_source_id": -1
    }, 
    {
      "op": "null", 
      "param": {}, 
      "name": "data/14", 
      "inputs": [], 
      "backward_source_id": -1
    }, 
    {
      "op": "Embedding", 
      "param": {
        "input_dim": "84", 
        "output_dim": "256"
      }, 
      "name": "t14_embed", 
      "inputs": [[679, 0], [1, 0]], 
      "backward_source_id": -1
    }, 
    {
      "op": "FullyConnected", 
      "param": {
        "no_bias": "False", 
        "num_hidden": "2048"
      }, 
      "name": "t14_l0_i2h", 
      "inputs": [[680, 0], [3, 0], [4, 0]], 
      "backward_source_id": -1
    }, 
    {
      "op": "FullyConnected", 
      "param": {
        "no_bias": "False", 
        "num_hidden": "2048"
      }, 
      "name": "t14_l0_h2h", 
      "inputs": [[646, 0], [7, 0], [8, 0]], 
      "backward_source_id": -1
    }, 
    {
      "op": "_Plus", 
      "param": {}, 
      "name": "_plus84", 
      "inputs": [[681, 0], [682, 0]], 
      "backward_source_id": -1
    }, 
    {
      "op": "SliceChannel", 
      "param": {
        "axis": "1", 
        "num_outputs": "4", 
        "squeeze_axis": "False"
      }, 
      "name": "t14_l0_slice", 
      "inputs": [[683, 0]], 
      "backward_source_id": -1
    }, 
    {
      "op": "Activation", 
      "param": {"act_type": "sigmoid"}, 
      "name": "activation213", 
      "inputs": [[684, 3]], 
      "backward_source_id": -1
    }, 
    {
      "op": "Activation", 
      "param": {"act_type": "sigmoid"}, 
      "name": "activation212", 
      "inputs": [[684, 2]], 
      "backward_source_id": -1
    }, 
    {
      "op": "_Mul", 
      "param": {}, 
      "name": "_mul126", 
      "inputs": [[686, 0], [644, 0]], 
      "backward_source_id": -1
    }, 
    {
      "op": "Activation", 
      "param": {"act_type": "sigmoid"}, 
      "name": "activation210", 
      "inputs": [[684, 0]], 
      "backward_source_id": -1
    }, 
    {
      "op": "Activation", 
      "param": {"act_type": "tanh"}, 
      "name": "activation211", 
      "inputs": [[684, 1]], 
      "backward_source_id": -1
    }, 
    {
      "op": "_Mul", 
      "param": {}, 
      "name": "_mul127", 
      "inputs": [[688, 0], [689, 0]], 
      "backward_source_id": -1
    }, 
    {
      "op": "_Plus", 
      "param": {}, 
      "name": "_plus85", 
      "inputs": [[687, 0], [690, 0]], 
      "backward_source_id": -1
    }, 
    {
      "op": "Activation", 
      "param": {"act_type": "tanh"}, 
      "name": "activation214", 
      "inputs": [[691, 0]], 
      "backward_source_id": -1
    }, 
    {
      "op": "_Mul", 
      "param": {}, 
      "name": "_mul128", 
      "inputs": [[685, 0], [692, 0]], 
      "backward_source_id": -1
    }, 
    {
      "op": "Dropout", 
      "param": {"p": "0.2"}, 
      "name": "dropout42", 
      "inputs": [[693, 0]], 
      "backward_source_id": -1
    }, 
    {
      "op": "FullyConnected", 
      "param": {
        "no_bias": "False", 
        "num_hidden": "2048"
      }, 
      "name": "t14_l1_i2h", 
      "inputs": [[694, 0], [23, 0], [24, 0]], 
      "backward_source_id": -1
    }, 
    {
      "op": "FullyConnected", 
      "param": {
        "no_bias": "False", 
        "num_hidden": "2048"
      }, 
      "name": "t14_l1_h2h", 
      "inputs": [[660, 0], [27, 0], [28, 0]], 
      "backward_source_id": -1
    }, 
    {
      "op": "_Plus", 
      "param": {}, 
      "name": "_plus86", 
      "inputs": [[695, 0], [696, 0]], 
      "backward_source_id": -1
    }, 
    {
      "op": "SliceChannel", 
      "param": {
        "axis": "1", 
        "num_outputs": "4", 
        "squeeze_axis": "False"
      }, 
      "name": "t14_l1_slice", 
      "inputs": [[697, 0]], 
      "backward_source_id": -1
    }, 
    {
      "op": "Activation", 
      "param": {"act_type": "sigmoid"}, 
      "name": "activation218", 
      "inputs": [[698, 3]], 
      "backward_source_id": -1
    }, 
    {
      "op": "Activation", 
      "param": {"act_type": "sigmoid"}, 
      "name": "activation217", 
      "inputs": [[698, 2]], 
      "backward_source_id": -1
    }, 
    {
      "op": "_Mul", 
      "param": {}, 
      "name": "_mul129", 
      "inputs": [[700, 0], [658, 0]], 
      "backward_source_id": -1
    }, 
    {
      "op": "Activation", 
      "param": {"act_type": "sigmoid"}, 
      "name": "activation215", 
      "inputs": [[698, 0]], 
      "backward_source_id": -1
    }, 
    {
      "op": "Activation", 
      "param": {"act_type": "tanh"}, 
      "name": "activation216", 
      "inputs": [[698, 1]], 
      "backward_source_id": -1
    }, 
    {
      "op": "_Mul", 
      "param": {}, 
      "name": "_mul130", 
      "inputs": [[702, 0], [703, 0]], 
      "backward_source_id": -1
    }, 
    {
      "op": "_Plus", 
      "param": {}, 
      "name": "_plus87", 
      "inputs": [[701, 0], [704, 0]], 
      "backward_source_id": -1
    }, 
    {
      "op": "Activation", 
      "param": {"act_type": "tanh"}, 
      "name": "activation219", 
      "inputs": [[705, 0]], 
      "backward_source_id": -1
    }, 
    {
      "op": "_Mul", 
      "param": {}, 
      "name": "_mul131", 
      "inputs": [[699, 0], [706, 0]], 
      "backward_source_id": -1
    }, 
    {
      "op": "Dropout", 
      "param": {"p": "0.2"}, 
      "name": "dropout43", 
      "inputs": [[707, 0]], 
      "backward_source_id": -1
    }, 
    {
      "op": "FullyConnected", 
      "param": {
        "no_bias": "False", 
        "num_hidden": "2048"
      }, 
      "name": "t14_l2_i2h", 
      "inputs": [[708, 0], [43, 0], [44, 0]], 
      "backward_source_id": -1
    }, 
    {
      "op": "FullyConnected", 
      "param": {
        "no_bias": "False", 
        "num_hidden": "2048"
      }, 
      "name": "t14_l2_h2h", 
      "inputs": [[674, 0], [47, 0], [48, 0]], 
      "backward_source_id": -1
    }, 
    {
      "op": "_Plus", 
      "param": {}, 
      "name": "_plus88", 
      "inputs": [[709, 0], [710, 0]], 
      "backward_source_id": -1
    }, 
    {
      "op": "SliceChannel", 
      "param": {
        "axis": "1", 
        "num_outputs": "4", 
        "squeeze_axis": "False"
      }, 
      "name": "t14_l2_slice", 
      "inputs": [[711, 0]], 
      "backward_source_id": -1
    }, 
    {
      "op": "Activation", 
      "param": {"act_type": "sigmoid"}, 
      "name": "activation223", 
      "inputs": [[712, 3]], 
      "backward_source_id": -1
    }, 
    {
      "op": "Activation", 
      "param": {"act_type": "sigmoid"}, 
      "name": "activation222", 
      "inputs": [[712, 2]], 
      "backward_source_id": -1
    }, 
    {
      "op": "_Mul", 
      "param": {}, 
      "name": "_mul132", 
      "inputs": [[714, 0], [672, 0]], 
      "backward_source_id": -1
    }, 
    {
      "op": "Activation", 
      "param": {"act_type": "sigmoid"}, 
      "name": "activation220", 
      "inputs": [[712, 0]], 
      "backward_source_id": -1
    }, 
    {
      "op": "Activation", 
      "param": {"act_type": "tanh"}, 
      "name": "activation221", 
      "inputs": [[712, 1]], 
      "backward_source_id": -1
    }, 
    {
      "op": "_Mul", 
      "param": {}, 
      "name": "_mul133", 
      "inputs": [[716, 0], [717, 0]], 
      "backward_source_id": -1
    }, 
    {
      "op": "_Plus", 
      "param": {}, 
      "name": "_plus89", 
      "inputs": [[715, 0], [718, 0]], 
      "backward_source_id": -1
    }, 
    {
      "op": "Activation", 
      "param": {"act_type": "tanh"}, 
      "name": "activation224", 
      "inputs": [[719, 0]], 
      "backward_source_id": -1
    }, 
    {
      "op": "_Mul", 
      "param": {}, 
      "name": "_mul134", 
      "inputs": [[713, 0], [720, 0]], 
      "backward_source_id": -1
    }, 
    {
      "op": "Dropout", 
      "param": {"p": "0.2"}, 
      "name": "dropout44", 
      "inputs": [[721, 0]], 
      "backward_source_id": -1
    }, 
    {
      "op": "FullyConnected", 
      "param": {
        "no_bias": "False", 
        "num_hidden": "84"
      }, 
      "name": "fullyconnected14", 
      "inputs": [[722, 0], [63, 0], [64, 0]], 
      "backward_source_id": -1
    }, 
    {
      "op": "null", 
      "param": {}, 
      "name": "label/14", 
      "inputs": [], 
      "backward_source_id": -1
    }, 
    {
      "op": "SoftmaxOutput", 
      "param": {
        "grad_scale": "1", 
        "ignore_label": "-1", 
        "multi_output": "False", 
        "normalization": "null", 
        "out_grad": "False", 
        "preserve_shape": "False", 
        "use_ignore": "False"
      }, 
      "name": "t14_sm", 
      "inputs": [[723, 0], [724, 0]], 
      "backward_source_id": -1
    }, 
    {
      "op": "null", 
      "param": {}, 
      "name": "data/15", 
      "inputs": [], 
      "backward_source_id": -1
    }, 
    {
      "op": "Embedding", 
      "param": {
        "input_dim": "84", 
        "output_dim": "256"
      }, 
      "name": "t15_embed", 
      "inputs": [[726, 0], [1, 0]], 
      "backward_source_id": -1
    }, 
    {
      "op": "FullyConnected", 
      "param": {
        "no_bias": "False", 
        "num_hidden": "2048"
      }, 
      "name": "t15_l0_i2h", 
      "inputs": [[727, 0], [3, 0], [4, 0]], 
      "backward_source_id": -1
    }, 
    {
      "op": "FullyConnected", 
      "param": {
        "no_bias": "False", 
        "num_hidden": "2048"
      }, 
      "name": "t15_l0_h2h", 
      "inputs": [[693, 0], [7, 0], [8, 0]], 
      "backward_source_id": -1
    }, 
    {
      "op": "_Plus", 
      "param": {}, 
      "name": "_plus90", 
      "inputs": [[728, 0], [729, 0]], 
      "backward_source_id": -1
    }, 
    {
      "op": "SliceChannel", 
      "param": {
        "axis": "1", 
        "num_outputs": "4", 
        "squeeze_axis": "False"
      }, 
      "name": "t15_l0_slice", 
      "inputs": [[730, 0]], 
      "backward_source_id": -1
    }, 
    {
      "op": "Activation", 
      "param": {"act_type": "sigmoid"}, 
      "name": "activation228", 
      "inputs": [[731, 3]], 
      "backward_source_id": -1
    }, 
    {
      "op": "Activation", 
      "param": {"act_type": "sigmoid"}, 
      "name": "activation227", 
      "inputs": [[731, 2]], 
      "backward_source_id": -1
    }, 
    {
      "op": "_Mul", 
      "param": {}, 
      "name": "_mul135", 
      "inputs": [[733, 0], [691, 0]], 
      "backward_source_id": -1
    }, 
    {
      "op": "Activation", 
      "param": {"act_type": "sigmoid"}, 
      "name": "activation225", 
      "inputs": [[731, 0]], 
      "backward_source_id": -1
    }, 
    {
      "op": "Activation", 
      "param": {"act_type": "tanh"}, 
      "name": "activation226", 
      "inputs": [[731, 1]], 
      "backward_source_id": -1
    }, 
    {
      "op": "_Mul", 
      "param": {}, 
      "name": "_mul136", 
      "inputs": [[735, 0], [736, 0]], 
      "backward_source_id": -1
    }, 
    {
      "op": "_Plus", 
      "param": {}, 
      "name": "_plus91", 
      "inputs": [[734, 0], [737, 0]], 
      "backward_source_id": -1
    }, 
    {
      "op": "Activation", 
      "param": {"act_type": "tanh"}, 
      "name": "activation229", 
      "inputs": [[738, 0]], 
      "backward_source_id": -1
    }, 
    {
      "op": "_Mul", 
      "param": {}, 
      "name": "_mul137", 
      "inputs": [[732, 0], [739, 0]], 
      "backward_source_id": -1
    }, 
    {
      "op": "Dropout", 
      "param": {"p": "0.2"}, 
      "name": "dropout45", 
      "inputs": [[740, 0]], 
      "backward_source_id": -1
    }, 
    {
      "op": "FullyConnected", 
      "param": {
        "no_bias": "False", 
        "num_hidden": "2048"
      }, 
      "name": "t15_l1_i2h", 
      "inputs": [[741, 0], [23, 0], [24, 0]], 
      "backward_source_id": -1
    }, 
    {
      "op": "FullyConnected", 
      "param": {
        "no_bias": "False", 
        "num_hidden": "2048"
      }, 
      "name": "t15_l1_h2h", 
      "inputs": [[707, 0], [27, 0], [28, 0]], 
      "backward_source_id": -1
    }, 
    {
      "op": "_Plus", 
      "param": {}, 
      "name": "_plus92", 
      "inputs": [[742, 0], [743, 0]], 
      "backward_source_id": -1
    }, 
    {
      "op": "SliceChannel", 
      "param": {
        "axis": "1", 
        "num_outputs": "4", 
        "squeeze_axis": "False"
      }, 
      "name": "t15_l1_slice", 
      "inputs": [[744, 0]], 
      "backward_source_id": -1
    }, 
    {
      "op": "Activation", 
      "param": {"act_type": "sigmoid"}, 
      "name": "activation233", 
      "inputs": [[745, 3]], 
      "backward_source_id": -1
    }, 
    {
      "op": "Activation", 
      "param": {"act_type": "sigmoid"}, 
      "name": "activation232", 
      "inputs": [[745, 2]], 
      "backward_source_id": -1
    }, 
    {
      "op": "_Mul", 
      "param": {}, 
      "name": "_mul138", 
      "inputs": [[747, 0], [705, 0]], 
      "backward_source_id": -1
    }, 
    {
      "op": "Activation", 
      "param": {"act_type": "sigmoid"}, 
      "name": "activation230", 
      "inputs": [[745, 0]], 
      "backward_source_id": -1
    }, 
    {
      "op": "Activation", 
      "param": {"act_type": "tanh"}, 
      "name": "activation231", 
      "inputs": [[745, 1]], 
      "backward_source_id": -1
    }, 
    {
      "op": "_Mul", 
      "param": {}, 
      "name": "_mul139", 
      "inputs": [[749, 0], [750, 0]], 
      "backward_source_id": -1
    }, 
    {
      "op": "_Plus", 
      "param": {}, 
      "name": "_plus93", 
      "inputs": [[748, 0], [751, 0]], 
      "backward_source_id": -1
    }, 
    {
      "op": "Activation", 
      "param": {"act_type": "tanh"}, 
      "name": "activation234", 
      "inputs": [[752, 0]], 
      "backward_source_id": -1
    }, 
    {
      "op": "_Mul", 
      "param": {}, 
      "name": "_mul140", 
      "inputs": [[746, 0], [753, 0]], 
      "backward_source_id": -1
    }, 
    {
      "op": "Dropout", 
      "param": {"p": "0.2"}, 
      "name": "dropout46", 
      "inputs": [[754, 0]], 
      "backward_source_id": -1
    }, 
    {
      "op": "FullyConnected", 
      "param": {
        "no_bias": "False", 
        "num_hidden": "2048"
      }, 
      "name": "t15_l2_i2h", 
      "inputs": [[755, 0], [43, 0], [44, 0]], 
      "backward_source_id": -1
    }, 
    {
      "op": "FullyConnected", 
      "param": {
        "no_bias": "False", 
        "num_hidden": "2048"
      }, 
      "name": "t15_l2_h2h", 
      "inputs": [[721, 0], [47, 0], [48, 0]], 
      "backward_source_id": -1
    }, 
    {
      "op": "_Plus", 
      "param": {}, 
      "name": "_plus94", 
      "inputs": [[756, 0], [757, 0]], 
      "backward_source_id": -1
    }, 
    {
      "op": "SliceChannel", 
      "param": {
        "axis": "1", 
        "num_outputs": "4", 
        "squeeze_axis": "False"
      }, 
      "name": "t15_l2_slice", 
      "inputs": [[758, 0]], 
      "backward_source_id": -1
    }, 
    {
      "op": "Activation", 
      "param": {"act_type": "sigmoid"}, 
      "name": "activation238", 
      "inputs": [[759, 3]], 
      "backward_source_id": -1
    }, 
    {
      "op": "Activation", 
      "param": {"act_type": "sigmoid"}, 
      "name": "activation237", 
      "inputs": [[759, 2]], 
      "backward_source_id": -1
    }, 
    {
      "op": "_Mul", 
      "param": {}, 
      "name": "_mul141", 
      "inputs": [[761, 0], [719, 0]], 
      "backward_source_id": -1
    }, 
    {
      "op": "Activation", 
      "param": {"act_type": "sigmoid"}, 
      "name": "activation235", 
      "inputs": [[759, 0]], 
      "backward_source_id": -1
    }, 
    {
      "op": "Activation", 
      "param": {"act_type": "tanh"}, 
      "name": "activation236", 
      "inputs": [[759, 1]], 
      "backward_source_id": -1
    }, 
    {
      "op": "_Mul", 
      "param": {}, 
      "name": "_mul142", 
      "inputs": [[763, 0], [764, 0]], 
      "backward_source_id": -1
    }, 
    {
      "op": "_Plus", 
      "param": {}, 
      "name": "_plus95", 
      "inputs": [[762, 0], [765, 0]], 
      "backward_source_id": -1
    }, 
    {
      "op": "Activation", 
      "param": {"act_type": "tanh"}, 
      "name": "activation239", 
      "inputs": [[766, 0]], 
      "backward_source_id": -1
    }, 
    {
      "op": "_Mul", 
      "param": {}, 
      "name": "_mul143", 
      "inputs": [[760, 0], [767, 0]], 
      "backward_source_id": -1
    }, 
    {
      "op": "Dropout", 
      "param": {"p": "0.2"}, 
      "name": "dropout47", 
      "inputs": [[768, 0]], 
      "backward_source_id": -1
    }, 
    {
      "op": "FullyConnected", 
      "param": {
        "no_bias": "False", 
        "num_hidden": "84"
      }, 
      "name": "fullyconnected15", 
      "inputs": [[769, 0], [63, 0], [64, 0]], 
      "backward_source_id": -1
    }, 
    {
      "op": "null", 
      "param": {}, 
      "name": "label/15", 
      "inputs": [], 
      "backward_source_id": -1
    }, 
    {
      "op": "SoftmaxOutput", 
      "param": {
        "grad_scale": "1", 
        "ignore_label": "-1", 
        "multi_output": "False", 
        "normalization": "null", 
        "out_grad": "False", 
        "preserve_shape": "False", 
        "use_ignore": "False"
      }, 
      "name": "t15_sm", 
      "inputs": [[770, 0], [771, 0]], 
      "backward_source_id": -1
    }, 
    {
      "op": "null", 
      "param": {}, 
      "name": "data/16", 
      "inputs": [], 
      "backward_source_id": -1
    }, 
    {
      "op": "Embedding", 
      "param": {
        "input_dim": "84", 
        "output_dim": "256"
      }, 
      "name": "t16_embed", 
      "inputs": [[773, 0], [1, 0]], 
      "backward_source_id": -1
    }, 
    {
      "op": "FullyConnected", 
      "param": {
        "no_bias": "False", 
        "num_hidden": "2048"
      }, 
      "name": "t16_l0_i2h", 
      "inputs": [[774, 0], [3, 0], [4, 0]], 
      "backward_source_id": -1
    }, 
    {
      "op": "FullyConnected", 
      "param": {
        "no_bias": "False", 
        "num_hidden": "2048"
      }, 
      "name": "t16_l0_h2h", 
      "inputs": [[740, 0], [7, 0], [8, 0]], 
      "backward_source_id": -1
    }, 
    {
      "op": "_Plus", 
      "param": {}, 
      "name": "_plus96", 
      "inputs": [[775, 0], [776, 0]], 
      "backward_source_id": -1
    }, 
    {
      "op": "SliceChannel", 
      "param": {
        "axis": "1", 
        "num_outputs": "4", 
        "squeeze_axis": "False"
      }, 
      "name": "t16_l0_slice", 
      "inputs": [[777, 0]], 
      "backward_source_id": -1
    }, 
    {
      "op": "Activation", 
      "param": {"act_type": "sigmoid"}, 
      "name": "activation243", 
      "inputs": [[778, 3]], 
      "backward_source_id": -1
    }, 
    {
      "op": "Activation", 
      "param": {"act_type": "sigmoid"}, 
      "name": "activation242", 
      "inputs": [[778, 2]], 
      "backward_source_id": -1
    }, 
    {
      "op": "_Mul", 
      "param": {}, 
      "name": "_mul144", 
      "inputs": [[780, 0], [738, 0]], 
      "backward_source_id": -1
    }, 
    {
      "op": "Activation", 
      "param": {"act_type": "sigmoid"}, 
      "name": "activation240", 
      "inputs": [[778, 0]], 
      "backward_source_id": -1
    }, 
    {
      "op": "Activation", 
      "param": {"act_type": "tanh"}, 
      "name": "activation241", 
      "inputs": [[778, 1]], 
      "backward_source_id": -1
    }, 
    {
      "op": "_Mul", 
      "param": {}, 
      "name": "_mul145", 
      "inputs": [[782, 0], [783, 0]], 
      "backward_source_id": -1
    }, 
    {
      "op": "_Plus", 
      "param": {}, 
      "name": "_plus97", 
      "inputs": [[781, 0], [784, 0]], 
      "backward_source_id": -1
    }, 
    {
      "op": "Activation", 
      "param": {"act_type": "tanh"}, 
      "name": "activation244", 
      "inputs": [[785, 0]], 
      "backward_source_id": -1
    }, 
    {
      "op": "_Mul", 
      "param": {}, 
      "name": "_mul146", 
      "inputs": [[779, 0], [786, 0]], 
      "backward_source_id": -1
    }, 
    {
      "op": "Dropout", 
      "param": {"p": "0.2"}, 
      "name": "dropout48", 
      "inputs": [[787, 0]], 
      "backward_source_id": -1
    }, 
    {
      "op": "FullyConnected", 
      "param": {
        "no_bias": "False", 
        "num_hidden": "2048"
      }, 
      "name": "t16_l1_i2h", 
      "inputs": [[788, 0], [23, 0], [24, 0]], 
      "backward_source_id": -1
    }, 
    {
      "op": "FullyConnected", 
      "param": {
        "no_bias": "False", 
        "num_hidden": "2048"
      }, 
      "name": "t16_l1_h2h", 
      "inputs": [[754, 0], [27, 0], [28, 0]], 
      "backward_source_id": -1
    }, 
    {
      "op": "_Plus", 
      "param": {}, 
      "name": "_plus98", 
      "inputs": [[789, 0], [790, 0]], 
      "backward_source_id": -1
    }, 
    {
      "op": "SliceChannel", 
      "param": {
        "axis": "1", 
        "num_outputs": "4", 
        "squeeze_axis": "False"
      }, 
      "name": "t16_l1_slice", 
      "inputs": [[791, 0]], 
      "backward_source_id": -1
    }, 
    {
      "op": "Activation", 
      "param": {"act_type": "sigmoid"}, 
      "name": "activation248", 
      "inputs": [[792, 3]], 
      "backward_source_id": -1
    }, 
    {
      "op": "Activation", 
      "param": {"act_type": "sigmoid"}, 
      "name": "activation247", 
      "inputs": [[792, 2]], 
      "backward_source_id": -1
    }, 
    {
      "op": "_Mul", 
      "param": {}, 
      "name": "_mul147", 
      "inputs": [[794, 0], [752, 0]], 
      "backward_source_id": -1
    }, 
    {
      "op": "Activation", 
      "param": {"act_type": "sigmoid"}, 
      "name": "activation245", 
      "inputs": [[792, 0]], 
      "backward_source_id": -1
    }, 
    {
      "op": "Activation", 
      "param": {"act_type": "tanh"}, 
      "name": "activation246", 
      "inputs": [[792, 1]], 
      "backward_source_id": -1
    }, 
    {
      "op": "_Mul", 
      "param": {}, 
      "name": "_mul148", 
      "inputs": [[796, 0], [797, 0]], 
      "backward_source_id": -1
    }, 
    {
      "op": "_Plus", 
      "param": {}, 
      "name": "_plus99", 
      "inputs": [[795, 0], [798, 0]], 
      "backward_source_id": -1
    }, 
    {
      "op": "Activation", 
      "param": {"act_type": "tanh"}, 
      "name": "activation249", 
      "inputs": [[799, 0]], 
      "backward_source_id": -1
    }, 
    {
      "op": "_Mul", 
      "param": {}, 
      "name": "_mul149", 
      "inputs": [[793, 0], [800, 0]], 
      "backward_source_id": -1
    }, 
    {
      "op": "Dropout", 
      "param": {"p": "0.2"}, 
      "name": "dropout49", 
      "inputs": [[801, 0]], 
      "backward_source_id": -1
    }, 
    {
      "op": "FullyConnected", 
      "param": {
        "no_bias": "False", 
        "num_hidden": "2048"
      }, 
      "name": "t16_l2_i2h", 
      "inputs": [[802, 0], [43, 0], [44, 0]], 
      "backward_source_id": -1
    }, 
    {
      "op": "FullyConnected", 
      "param": {
        "no_bias": "False", 
        "num_hidden": "2048"
      }, 
      "name": "t16_l2_h2h", 
      "inputs": [[768, 0], [47, 0], [48, 0]], 
      "backward_source_id": -1
    }, 
    {
      "op": "_Plus", 
      "param": {}, 
      "name": "_plus100", 
      "inputs": [[803, 0], [804, 0]], 
      "backward_source_id": -1
    }, 
    {
      "op": "SliceChannel", 
      "param": {
        "axis": "1", 
        "num_outputs": "4", 
        "squeeze_axis": "False"
      }, 
      "name": "t16_l2_slice", 
      "inputs": [[805, 0]], 
      "backward_source_id": -1
    }, 
    {
      "op": "Activation", 
      "param": {"act_type": "sigmoid"}, 
      "name": "activation253", 
      "inputs": [[806, 3]], 
      "backward_source_id": -1
    }, 
    {
      "op": "Activation", 
      "param": {"act_type": "sigmoid"}, 
      "name": "activation252", 
      "inputs": [[806, 2]], 
      "backward_source_id": -1
    }, 
    {
      "op": "_Mul", 
      "param": {}, 
      "name": "_mul150", 
      "inputs": [[808, 0], [766, 0]], 
      "backward_source_id": -1
    }, 
    {
      "op": "Activation", 
      "param": {"act_type": "sigmoid"}, 
      "name": "activation250", 
      "inputs": [[806, 0]], 
      "backward_source_id": -1
    }, 
    {
      "op": "Activation", 
      "param": {"act_type": "tanh"}, 
      "name": "activation251", 
      "inputs": [[806, 1]], 
      "backward_source_id": -1
    }, 
    {
      "op": "_Mul", 
      "param": {}, 
      "name": "_mul151", 
      "inputs": [[810, 0], [811, 0]], 
      "backward_source_id": -1
    }, 
    {
      "op": "_Plus", 
      "param": {}, 
      "name": "_plus101", 
      "inputs": [[809, 0], [812, 0]], 
      "backward_source_id": -1
    }, 
    {
      "op": "Activation", 
      "param": {"act_type": "tanh"}, 
      "name": "activation254", 
      "inputs": [[813, 0]], 
      "backward_source_id": -1
    }, 
    {
      "op": "_Mul", 
      "param": {}, 
      "name": "_mul152", 
      "inputs": [[807, 0], [814, 0]], 
      "backward_source_id": -1
    }, 
    {
      "op": "Dropout", 
      "param": {"p": "0.2"}, 
      "name": "dropout50", 
      "inputs": [[815, 0]], 
      "backward_source_id": -1
    }, 
    {
      "op": "FullyConnected", 
      "param": {
        "no_bias": "False", 
        "num_hidden": "84"
      }, 
      "name": "fullyconnected16", 
      "inputs": [[816, 0], [63, 0], [64, 0]], 
      "backward_source_id": -1
    }, 
    {
      "op": "null", 
      "param": {}, 
      "name": "label/16", 
      "inputs": [], 
      "backward_source_id": -1
    }, 
    {
      "op": "SoftmaxOutput", 
      "param": {
        "grad_scale": "1", 
        "ignore_label": "-1", 
        "multi_output": "False", 
        "normalization": "null", 
        "out_grad": "False", 
        "preserve_shape": "False", 
        "use_ignore": "False"
      }, 
      "name": "t16_sm", 
      "inputs": [[817, 0], [818, 0]], 
      "backward_source_id": -1
    }, 
    {
      "op": "null", 
      "param": {}, 
      "name": "data/17", 
      "inputs": [], 
      "backward_source_id": -1
    }, 
    {
      "op": "Embedding", 
      "param": {
        "input_dim": "84", 
        "output_dim": "256"
      }, 
      "name": "t17_embed", 
      "inputs": [[820, 0], [1, 0]], 
      "backward_source_id": -1
    }, 
    {
      "op": "FullyConnected", 
      "param": {
        "no_bias": "False", 
        "num_hidden": "2048"
      }, 
      "name": "t17_l0_i2h", 
      "inputs": [[821, 0], [3, 0], [4, 0]], 
      "backward_source_id": -1
    }, 
    {
      "op": "FullyConnected", 
      "param": {
        "no_bias": "False", 
        "num_hidden": "2048"
      }, 
      "name": "t17_l0_h2h", 
      "inputs": [[787, 0], [7, 0], [8, 0]], 
      "backward_source_id": -1
    }, 
    {
      "op": "_Plus", 
      "param": {}, 
      "name": "_plus102", 
      "inputs": [[822, 0], [823, 0]], 
      "backward_source_id": -1
    }, 
    {
      "op": "SliceChannel", 
      "param": {
        "axis": "1", 
        "num_outputs": "4", 
        "squeeze_axis": "False"
      }, 
      "name": "t17_l0_slice", 
      "inputs": [[824, 0]], 
      "backward_source_id": -1
    }, 
    {
      "op": "Activation", 
      "param": {"act_type": "sigmoid"}, 
      "name": "activation258", 
      "inputs": [[825, 3]], 
      "backward_source_id": -1
    }, 
    {
      "op": "Activation", 
…
    }, 
    {
      "op": "_Plus", 
      "param": {}, 
      "name": "_plus743", 
      "inputs": [[5838, 0], [5841, 0]], 
      "backward_source_id": -1
    }, 
    {
      "op": "Activation", 
      "param": {"act_type": "tanh"}, 
      "name": "activation1859", 
      "inputs": [[5842, 0]], 
      "backward_source_id": -1
    }, 
    {
      "op": "_Mul", 
      "param": {}, 
      "name": "_mul1115", 
      "inputs": [[5836, 0], [5843, 0]], 
      "backward_source_id": -1
    }, 
    {
      "op": "Dropout", 
      "param": {"p": "0.2"}, 
      "name": "dropout371", 
      "inputs": [[5844, 0]], 
      "backward_source_id": -1
    }, 
    {
      "op": "FullyConnected", 
      "param": {
        "no_bias": "False", 
        "num_hidden": "84"
      }, 
      "name": "fullyconnected123", 
      "inputs": [[5845, 0], [63, 0], [64, 0]], 
      "backward_source_id": -1
    }, 
    {
      "op": "null", 
      "param": {}, 
      "name": "label/123", 
      "inputs": [], 
      "backward_source_id": -1
    }, 
    {
      "op": "SoftmaxOutput", 
      "param": {
        "grad_scale": "1", 
        "ignore_label": "-1", 
        "multi_output": "False", 
        "normalization": "null", 
        "out_grad": "False", 
        "preserve_shape": "False", 
        "use_ignore": "False"
      }, 
      "name": "t123_sm", 
      "inputs": [[5846, 0], [5847, 0]], 
      "backward_source_id": -1
    }, 
    {
      "op": "null", 
      "param": {}, 
      "name": "data/124", 
      "inputs": [], 
      "backward_source_id": -1
    }, 
    {
      "op": "Embedding", 
      "param": {
        "input_dim": "84", 
        "output_dim": "256"
      }, 
      "name": "t124_embed", 
      "inputs": [[5849, 0], [1, 0]], 
      "backward_source_id": -1
    }, 
    {
      "op": "FullyConnected", 
      "param": {
        "no_bias": "False", 
        "num_hidden": "2048"
      }, 
      "name": "t124_l0_i2h", 
      "inputs": [[5850, 0], [3, 0], [4, 0]], 
      "backward_source_id": -1
    }, 
    {
      "op": "FullyConnected", 
      "param": {
        "no_bias": "False", 
        "num_hidden": "2048"
      }, 
      "name": "t124_l0_h2h", 
      "inputs": [[5816, 0], [7, 0], [8, 0]], 
      "backward_source_id": -1
    }, 
    {
      "op": "_Plus", 
      "param": {}, 
      "name": "_plus744", 
      "inputs": [[5851, 0], [5852, 0]], 
      "backward_source_id": -1
    }, 
    {
      "op": "SliceChannel", 
      "param": {
        "axis": "1", 
        "num_outputs": "4", 
        "squeeze_axis": "False"
      }, 
      "name": "t124_l0_slice", 
      "inputs": [[5853, 0]], 
      "backward_source_id": -1
    }, 
    {
      "op": "Activation", 
      "param": {"act_type": "sigmoid"}, 
      "name": "activation1863", 
      "inputs": [[5854, 3]], 
      "backward_source_id": -1
    }, 
    {
      "op": "Activation", 
      "param": {"act_type": "sigmoid"}, 
      "name": "activation1862", 
      "inputs": [[5854, 2]], 
      "backward_source_id": -1
    }, 
    {
      "op": "_Mul", 
      "param": {}, 
      "name": "_mul1116", 
      "inputs": [[5856, 0], [5814, 0]], 
      "backward_source_id": -1
    }, 
    {
      "op": "Activation", 
      "param": {"act_type": "sigmoid"}, 
      "name": "activation1860", 
      "inputs": [[5854, 0]], 
      "backward_source_id": -1
    }, 
    {
      "op": "Activation", 
      "param": {"act_type": "tanh"}, 
      "name": "activation1861", 
      "inputs": [[5854, 1]], 
      "backward_source_id": -1
    }, 
    {
      "op": "_Mul", 
      "param": {}, 
      "name": "_mul1117", 
      "inputs": [[5858, 0], [5859, 0]], 
      "backward_source_id": -1
    }, 
    {
      "op": "_Plus", 
      "param": {}, 
      "name": "_plus745", 
      "inputs": [[5857, 0], [5860, 0]], 
      "backward_source_id": -1
    }, 
    {
      "op": "Activation", 
      "param": {"act_type": "tanh"}, 
      "name": "activation1864", 
      "inputs": [[5861, 0]], 
      "backward_source_id": -1
    }, 
    {
      "op": "_Mul", 
      "param": {}, 
      "name": "_mul1118", 
      "inputs": [[5855, 0], [5862, 0]], 
      "backward_source_id": -1
    }, 
    {
      "op": "Dropout", 
      "param": {"p": "0.2"}, 
      "name": "dropout372", 
      "inputs": [[5863, 0]], 
      "backward_source_id": -1
    }, 
    {
      "op": "FullyConnected", 
      "param": {
        "no_bias": "False", 
        "num_hidden": "2048"
      }, 
      "name": "t124_l1_i2h", 
      "inputs": [[5864, 0], [23, 0], [24, 0]], 
      "backward_source_id": -1
    }, 
    {
      "op": "FullyConnected", 
      "param": {
        "no_bias": "False", 
        "num_hidden": "2048"
      }, 
      "name": "t124_l1_h2h", 
      "inputs": [[5830, 0], [27, 0], [28, 0]], 
      "backward_source_id": -1
    }, 
    {
      "op": "_Plus", 
      "param": {}, 
      "name": "_plus746", 
      "inputs": [[5865, 0], [5866, 0]], 
      "backward_source_id": -1
    }, 
    {
      "op": "SliceChannel", 
      "param": {
        "axis": "1", 
        "num_outputs": "4", 
        "squeeze_axis": "False"
      }, 
      "name": "t124_l1_slice", 
      "inputs": [[5867, 0]], 
      "backward_source_id": -1
    }, 
    {
      "op": "Activation", 
      "param": {"act_type": "sigmoid"}, 
      "name": "activation1868", 
      "inputs": [[5868, 3]], 
      "backward_source_id": -1
    }, 
    {
      "op": "Activation", 
      "param": {"act_type": "sigmoid"}, 
      "name": "activation1867", 
      "inputs": [[5868, 2]], 
      "backward_source_id": -1
    }, 
    {
      "op": "_Mul", 
      "param": {}, 
      "name": "_mul1119", 
      "inputs": [[5870, 0], [5828, 0]], 
      "backward_source_id": -1
    }, 
    {
      "op": "Activation", 
      "param": {"act_type": "sigmoid"}, 
      "name": "activation1865", 
      "inputs": [[5868, 0]], 
      "backward_source_id": -1
    }, 
    {
      "op": "Activation", 
      "param": {"act_type": "tanh"}, 
      "name": "activation1866", 
      "inputs": [[5868, 1]], 
      "backward_source_id": -1
    }, 
    {
      "op": "_Mul", 
      "param": {}, 
      "name": "_mul1120", 
      "inputs": [[5872, 0], [5873, 0]], 
      "backward_source_id": -1
    }, 
    {
      "op": "_Plus", 
      "param": {}, 
      "name": "_plus747", 
      "inputs": [[5871, 0], [5874, 0]], 
      "backward_source_id": -1
    }, 
    {
      "op": "Activation", 
      "param": {"act_type": "tanh"}, 
      "name": "activation1869", 
      "inputs": [[5875, 0]], 
      "backward_source_id": -1
    }, 
    {
      "op": "_Mul", 
      "param": {}, 
      "name": "_mul1121", 
      "inputs": [[5869, 0], [5876, 0]], 
      "backward_source_id": -1
    }, 
    {
      "op": "Dropout", 
      "param": {"p": "0.2"}, 
      "name": "dropout373", 
      "inputs": [[5877, 0]], 
      "backward_source_id": -1
    }, 
    {
      "op": "FullyConnected", 
      "param": {
        "no_bias": "False", 
        "num_hidden": "2048"
      }, 
      "name": "t124_l2_i2h", 
      "inputs": [[5878, 0], [43, 0], [44, 0]], 
      "backward_source_id": -1
    }, 
    {
      "op": "FullyConnected", 
      "param": {
        "no_bias": "False", 
        "num_hidden": "2048"
      }, 
      "name": "t124_l2_h2h", 
      "inputs": [[5844, 0], [47, 0], [48, 0]], 
      "backward_source_id": -1
    }, 
    {
      "op": "_Plus", 
      "param": {}, 
      "name": "_plus748", 
      "inputs": [[5879, 0], [5880, 0]], 
      "backward_source_id": -1
    }, 
    {
      "op": "SliceChannel", 
      "param": {
        "axis": "1", 
        "num_outputs": "4", 
        "squeeze_axis": "False"
      }, 
      "name": "t124_l2_slice", 
      "inputs": [[5881, 0]], 
      "backward_source_id": -1
    }, 
    {
      "op": "Activation", 
      "param": {"act_type": "sigmoid"}, 
      "name": "activation1873", 
      "inputs": [[5882, 3]], 
      "backward_source_id": -1
    }, 
    {
      "op": "Activation", 
      "param": {"act_type": "sigmoid"}, 
      "name": "activation1872", 
      "inputs": [[5882, 2]], 
      "backward_source_id": -1
    }, 
    {
      "op": "_Mul", 
      "param": {}, 
      "name": "_mul1122", 
      "inputs": [[5884, 0], [5842, 0]], 
      "backward_source_id": -1
    }, 
    {
      "op": "Activation", 
      "param": {"act_type": "sigmoid"}, 
      "name": "activation1870", 
      "inputs": [[5882, 0]], 
      "backward_source_id": -1
    }, 
    {
      "op": "Activation", 
      "param": {"act_type": "tanh"}, 
      "name": "activation1871", 
      "inputs": [[5882, 1]], 
      "backward_source_id": -1
    }, 
    {
      "op": "_Mul", 
      "param": {}, 
      "name": "_mul1123", 
      "inputs": [[5886, 0], [5887, 0]], 
      "backward_source_id": -1
    }, 
    {
      "op": "_Plus", 
      "param": {}, 
      "name": "_plus749", 
      "inputs": [[5885, 0], [5888, 0]], 
      "backward_source_id": -1
    }, 
    {
      "op": "Activation", 
      "param": {"act_type": "tanh"}, 
      "name": "activation1874", 
      "inputs": [[5889, 0]], 
      "backward_source_id": -1
    }, 
    {
      "op": "_Mul", 
      "param": {}, 
      "name": "_mul1124", 
      "inputs": [[5883, 0], [5890, 0]], 
      "backward_source_id": -1
    }, 
    {
      "op": "Dropout", 
      "param": {"p": "0.2"}, 
      "name": "dropout374", 
      "inputs": [[5891, 0]], 
      "backward_source_id": -1
    }, 
    {
      "op": "FullyConnected", 
      "param": {
        "no_bias": "False", 
        "num_hidden": "84"
      }, 
      "name": "fullyconnected124", 
      "inputs": [[5892, 0], [63, 0], [64, 0]], 
      "backward_source_id": -1
    }, 
    {
      "op": "null", 
      "param": {}, 
      "name": "label/124", 
      "inputs": [], 
      "backward_source_id": -1
    }, 
    {
      "op": "SoftmaxOutput", 
      "param": {
        "grad_scale": "1", 
        "ignore_label": "-1", 
        "multi_output": "False", 
        "normalization": "null", 
        "out_grad": "False", 
        "preserve_shape": "False", 
        "use_ignore": "False"
      }, 
      "name": "t124_sm", 
      "inputs": [[5893, 0], [5894, 0]], 
      "backward_source_id": -1
    }, 
    {
      "op": "null", 
      "param": {}, 
      "name": "data/125", 
      "inputs": [], 
      "backward_source_id": -1
    }, 
    {
      "op": "Embedding", 
      "param": {
        "input_dim": "84", 
        "output_dim": "256"
      }, 
      "name": "t125_embed", 
      "inputs": [[5896, 0], [1, 0]], 
      "backward_source_id": -1
    }, 
    {
      "op": "FullyConnected", 
      "param": {
        "no_bias": "False", 
        "num_hidden": "2048"
      }, 
      "name": "t125_l0_i2h", 
      "inputs": [[5897, 0], [3, 0], [4, 0]], 
      "backward_source_id": -1
    }, 
    {
      "op": "FullyConnected", 
      "param": {
        "no_bias": "False", 
        "num_hidden": "2048"
      }, 
      "name": "t125_l0_h2h", 
      "inputs": [[5863, 0], [7, 0], [8, 0]], 
      "backward_source_id": -1
    }, 
    {
      "op": "_Plus", 
      "param": {}, 
      "name": "_plus750", 
      "inputs": [[5898, 0], [5899, 0]], 
      "backward_source_id": -1
    }, 
    {
      "op": "SliceChannel", 
      "param": {
        "axis": "1", 
        "num_outputs": "4", 
        "squeeze_axis": "False"
      }, 
      "name": "t125_l0_slice", 
      "inputs": [[5900, 0]], 
      "backward_source_id": -1
    }, 
    {
      "op": "Activation", 
      "param": {"act_type": "sigmoid"}, 
      "name": "activation1878", 
      "inputs": [[5901, 3]], 
      "backward_source_id": -1
    }, 
    {
      "op": "Activation", 
      "param": {"act_type": "sigmoid"}, 
      "name": "activation1877", 
      "inputs": [[5901, 2]], 
      "backward_source_id": -1
    }, 
    {
      "op": "_Mul", 
      "param": {}, 
      "name": "_mul1125", 
      "inputs": [[5903, 0], [5861, 0]], 
      "backward_source_id": -1
    }, 
    {
      "op": "Activation", 
      "param": {"act_type": "sigmoid"}, 
      "name": "activation1875", 
      "inputs": [[5901, 0]], 
      "backward_source_id": -1
    }, 
    {
      "op": "Activation", 
      "param": {"act_type": "tanh"}, 
      "name": "activation1876", 
      "inputs": [[5901, 1]], 
      "backward_source_id": -1
    }, 
    {
      "op": "_Mul", 
      "param": {}, 
      "name": "_mul1126", 
      "inputs": [[5905, 0], [5906, 0]], 
      "backward_source_id": -1
    }, 
    {
      "op": "_Plus", 
      "param": {}, 
      "name": "_plus751", 
      "inputs": [[5904, 0], [5907, 0]], 
      "backward_source_id": -1
    }, 
    {
      "op": "Activation", 
      "param": {"act_type": "tanh"}, 
      "name": "activation1879", 
      "inputs": [[5908, 0]], 
      "backward_source_id": -1
    }, 
    {
      "op": "_Mul", 
      "param": {}, 
      "name": "_mul1127", 
      "inputs": [[5902, 0], [5909, 0]], 
      "backward_source_id": -1
    }, 
    {
      "op": "Dropout", 
      "param": {"p": "0.2"}, 
      "name": "dropout375", 
      "inputs": [[5910, 0]], 
      "backward_source_id": -1
    }, 
    {
      "op": "FullyConnected", 
      "param": {
        "no_bias": "False", 
        "num_hidden": "2048"
      }, 
      "name": "t125_l1_i2h", 
      "inputs": [[5911, 0], [23, 0], [24, 0]], 
      "backward_source_id": -1
    }, 
    {
      "op": "FullyConnected", 
      "param": {
        "no_bias": "False", 
        "num_hidden": "2048"
      }, 
      "name": "t125_l1_h2h", 
      "inputs": [[5877, 0], [27, 0], [28, 0]], 
      "backward_source_id": -1
    }, 
    {
      "op": "_Plus", 
      "param": {}, 
      "name": "_plus752", 
      "inputs": [[5912, 0], [5913, 0]], 
      "backward_source_id": -1
    }, 
    {
      "op": "SliceChannel", 
      "param": {
        "axis": "1", 
        "num_outputs": "4", 
        "squeeze_axis": "False"
      }, 
      "name": "t125_l1_slice", 
      "inputs": [[5914, 0]], 
      "backward_source_id": -1
    }, 
    {
      "op": "Activation", 
      "param": {"act_type": "sigmoid"}, 
      "name": "activation1883", 
      "inputs": [[5915, 3]], 
      "backward_source_id": -1
    }, 
    {
      "op": "Activation", 
      "param": {"act_type": "sigmoid"}, 
      "name": "activation1882", 
      "inputs": [[5915, 2]], 
      "backward_source_id": -1
    }, 
    {
      "op": "_Mul", 
      "param": {}, 
      "name": "_mul1128", 
      "inputs": [[5917, 0], [5875, 0]], 
      "backward_source_id": -1
    }, 
    {
      "op": "Activation", 
      "param": {"act_type": "sigmoid"}, 
      "name": "activation1880", 
      "inputs": [[5915, 0]], 
      "backward_source_id": -1
    }, 
    {
      "op": "Activation", 
      "param": {"act_type": "tanh"}, 
      "name": "activation1881", 
      "inputs": [[5915, 1]], 
      "backward_source_id": -1
    }, 
    {
      "op": "_Mul", 
      "param": {}, 
      "name": "_mul1129", 
      "inputs": [[5919, 0], [5920, 0]], 
      "backward_source_id": -1
    }, 
    {
      "op": "_Plus", 
      "param": {}, 
      "name": "_plus753", 
      "inputs": [[5918, 0], [5921, 0]], 
      "backward_source_id": -1
    }, 
    {
      "op": "Activation", 
      "param": {"act_type": "tanh"}, 
      "name": "activation1884", 
      "inputs": [[5922, 0]], 
      "backward_source_id": -1
    }, 
    {
      "op": "_Mul", 
      "param": {}, 
      "name": "_mul1130", 
      "inputs": [[5916, 0], [5923, 0]], 
      "backward_source_id": -1
    }, 
    {
      "op": "Dropout", 
      "param": {"p": "0.2"}, 
      "name": "dropout376", 
      "inputs": [[5924, 0]], 
      "backward_source_id": -1
    }, 
    {
      "op": "FullyConnected", 
      "param": {
        "no_bias": "False", 
        "num_hidden": "2048"
      }, 
      "name": "t125_l2_i2h", 
      "inputs": [[5925, 0], [43, 0], [44, 0]], 
      "backward_source_id": -1
    }, 
    {
      "op": "FullyConnected", 
      "param": {
        "no_bias": "False", 
        "num_hidden": "2048"
      }, 
      "name": "t125_l2_h2h", 
      "inputs": [[5891, 0], [47, 0], [48, 0]], 
      "backward_source_id": -1
    }, 
    {
      "op": "_Plus", 
      "param": {}, 
      "name": "_plus754", 
      "inputs": [[5926, 0], [5927, 0]], 
      "backward_source_id": -1
    }, 
    {
      "op": "SliceChannel", 
      "param": {
        "axis": "1", 
        "num_outputs": "4", 
        "squeeze_axis": "False"
      }, 
      "name": "t125_l2_slice", 
      "inputs": [[5928, 0]], 
      "backward_source_id": -1
    }, 
    {
      "op": "Activation", 
      "param": {"act_type": "sigmoid"}, 
      "name": "activation1888", 
      "inputs": [[5929, 3]], 
      "backward_source_id": -1
    }, 
    {
      "op": "Activation", 
      "param": {"act_type": "sigmoid"}, 
      "name": "activation1887", 
      "inputs": [[5929, 2]], 
      "backward_source_id": -1
    }, 
    {
      "op": "_Mul", 
      "param": {}, 
      "name": "_mul1131", 
      "inputs": [[5931, 0], [5889, 0]], 
      "backward_source_id": -1
    }, 
    {
      "op": "Activation", 
      "param": {"act_type": "sigmoid"}, 
      "name": "activation1885", 
      "inputs": [[5929, 0]], 
      "backward_source_id": -1
    }, 
    {
      "op": "Activation", 
      "param": {"act_type": "tanh"}, 
      "name": "activation1886", 
      "inputs": [[5929, 1]], 
      "backward_source_id": -1
    }, 
    {
      "op": "_Mul", 
      "param": {}, 
      "name": "_mul1132", 
      "inputs": [[5933, 0], [5934, 0]], 
      "backward_source_id": -1
    }, 
    {
      "op": "_Plus", 
      "param": {}, 
      "name": "_plus755", 
      "inputs": [[5932, 0], [5935, 0]], 
      "backward_source_id": -1
    }, 
    {
      "op": "Activation", 
      "param": {"act_type": "tanh"}, 
      "name": "activation1889", 
      "inputs": [[5936, 0]], 
      "backward_source_id": -1
    }, 
    {
      "op": "_Mul", 
      "param": {}, 
      "name": "_mul1133", 
      "inputs": [[5930, 0], [5937, 0]], 
      "backward_source_id": -1
    }, 
    {
      "op": "Dropout", 
      "param": {"p": "0.2"}, 
      "name": "dropout377", 
      "inputs": [[5938, 0]], 
      "backward_source_id": -1
    }, 
    {
      "op": "FullyConnected", 
      "param": {
        "no_bias": "False", 
        "num_hidden": "84"
      }, 
      "name": "fullyconnected125", 
      "inputs": [[5939, 0], [63, 0], [64, 0]], 
      "backward_source_id": -1
    }, 
    {
      "op": "null", 
      "param": {}, 
      "name": "label/125", 
      "inputs": [], 
      "backward_source_id": -1
    }, 
    {
      "op": "SoftmaxOutput", 
      "param": {
        "grad_scale": "1", 
        "ignore_label": "-1", 
        "multi_output": "False", 
        "normalization": "null", 
        "out_grad": "False", 
        "preserve_shape": "False", 
        "use_ignore": "False"
      }, 
      "name": "t125_sm", 
      "inputs": [[5940, 0], [5941, 0]], 
      "backward_source_id": -1
    }, 
    {
      "op": "null", 
      "param": {}, 
      "name": "data/126", 
      "inputs": [], 
      "backward_source_id": -1
    }, 
    {
      "op": "Embedding", 
      "param": {
        "input_dim": "84", 
        "output_dim": "256"
      }, 
      "name": "t126_embed", 
      "inputs": [[5943, 0], [1, 0]], 
      "backward_source_id": -1
    }, 
    {
      "op": "FullyConnected", 
      "param": {
        "no_bias": "False", 
        "num_hidden": "2048"
      }, 
      "name": "t126_l0_i2h", 
      "inputs": [[5944, 0], [3, 0], [4, 0]], 
      "backward_source_id": -1
    }, 
    {
      "op": "FullyConnected", 
      "param": {
        "no_bias": "False", 
        "num_hidden": "2048"
      }, 
      "name": "t126_l0_h2h", 
      "inputs": [[5910, 0], [7, 0], [8, 0]], 
      "backward_source_id": -1
    }, 
    {
      "op": "_Plus", 
      "param": {}, 
      "name": "_plus756", 
      "inputs": [[5945, 0], [5946, 0]], 
      "backward_source_id": -1
    }, 
    {
      "op": "SliceChannel", 
      "param": {
        "axis": "1", 
        "num_outputs": "4", 
        "squeeze_axis": "False"
      }, 
      "name": "t126_l0_slice", 
      "inputs": [[5947, 0]], 
      "backward_source_id": -1
    }, 
    {
      "op": "Activation", 
      "param": {"act_type": "sigmoid"}, 
      "name": "activation1893", 
      "inputs": [[5948, 3]], 
      "backward_source_id": -1
    }, 
    {
      "op": "Activation", 
      "param": {"act_type": "sigmoid"}, 
      "name": "activation1892", 
      "inputs": [[5948, 2]], 
      "backward_source_id": -1
    }, 
    {
      "op": "_Mul", 
      "param": {}, 
      "name": "_mul1134", 
      "inputs": [[5950, 0], [5908, 0]], 
      "backward_source_id": -1
    }, 
    {
      "op": "Activation", 
      "param": {"act_type": "sigmoid"}, 
      "name": "activation1890", 
      "inputs": [[5948, 0]], 
      "backward_source_id": -1
    }, 
    {
      "op": "Activation", 
      "param": {"act_type": "tanh"}, 
      "name": "activation1891", 
      "inputs": [[5948, 1]], 
      "backward_source_id": -1
    }, 
    {
      "op": "_Mul", 
      "param": {}, 
      "name": "_mul1135", 
      "inputs": [[5952, 0], [5953, 0]], 
      "backward_source_id": -1
    }, 
    {
      "op": "_Plus", 
      "param": {}, 
      "name": "_plus757", 
      "inputs": [[5951, 0], [5954, 0]], 
      "backward_source_id": -1
    }, 
    {
      "op": "Activation", 
      "param": {"act_type": "tanh"}, 
      "name": "activation1894", 
      "inputs": [[5955, 0]], 
      "backward_source_id": -1
    }, 
    {
      "op": "_Mul", 
      "param": {}, 
      "name": "_mul1136", 
      "inputs": [[5949, 0], [5956, 0]], 
      "backward_source_id": -1
    }, 
    {
      "op": "Dropout", 
      "param": {"p": "0.2"}, 
      "name": "dropout378", 
      "inputs": [[5957, 0]], 
      "backward_source_id": -1
    }, 
    {
      "op": "FullyConnected", 
      "param": {
        "no_bias": "False", 
        "num_hidden": "2048"
      }, 
      "name": "t126_l1_i2h", 
      "inputs": [[5958, 0], [23, 0], [24, 0]], 
      "backward_source_id": -1
    }, 
    {
      "op": "FullyConnected", 
      "param": {
        "no_bias": "False", 
        "num_hidden": "2048"
      }, 
      "name": "t126_l1_h2h", 
      "inputs": [[5924, 0], [27, 0], [28, 0]], 
      "backward_source_id": -1
    }, 
    {
      "op": "_Plus", 
      "param": {}, 
      "name": "_plus758", 
      "inputs": [[5959, 0], [5960, 0]], 
      "backward_source_id": -1
    }, 
    {
      "op": "SliceChannel", 
      "param": {
        "axis": "1", 
        "num_outputs": "4", 
        "squeeze_axis": "False"
      }, 
      "name": "t126_l1_slice", 
      "inputs": [[5961, 0]], 
      "backward_source_id": -1
    }, 
    {
      "op": "Activation", 
      "param": {"act_type": "sigmoid"}, 
      "name": "activation1898", 
      "inputs": [[5962, 3]], 
      "backward_source_id": -1
    }, 
    {
      "op": "Activation", 
      "param": {"act_type": "sigmoid"}, 
      "name": "activation1897", 
      "inputs": [[5962, 2]], 
      "backward_source_id": -1
    }, 
    {
      "op": "_Mul", 
      "param": {}, 
      "name": "_mul1137", 
      "inputs": [[5964, 0], [5922, 0]], 
      "backward_source_id": -1
    }, 
    {
      "op": "Activation", 
      "param": {"act_type": "sigmoid"}, 
      "name": "activation1895", 
      "inputs": [[5962, 0]], 
      "backward_source_id": -1
    }, 
    {
      "op": "Activation", 
      "param": {"act_type": "tanh"}, 
      "name": "activation1896", 
      "inputs": [[5962, 1]], 
      "backward_source_id": -1
    }, 
    {
      "op": "_Mul", 
      "param": {}, 
      "name": "_mul1138", 
      "inputs": [[5966, 0], [5967, 0]], 
      "backward_source_id": -1
    }, 
    {
      "op": "_Plus", 
      "param": {}, 
      "name": "_plus759", 
      "inputs": [[5965, 0], [5968, 0]], 
      "backward_source_id": -1
    }, 
    {
      "op": "Activation", 
      "param": {"act_type": "tanh"}, 
      "name": "activation1899", 
      "inputs": [[5969, 0]], 
      "backward_source_id": -1
    }, 
    {
      "op": "_Mul", 
      "param": {}, 
      "name": "_mul1139", 
      "inputs": [[5963, 0], [5970, 0]], 
      "backward_source_id": -1
    }, 
    {
      "op": "Dropout", 
      "param": {"p": "0.2"}, 
      "name": "dropout379", 
      "inputs": [[5971, 0]], 
      "backward_source_id": -1
    }, 
    {
      "op": "FullyConnected", 
      "param": {
        "no_bias": "False", 
        "num_hidden": "2048"
      }, 
      "name": "t126_l2_i2h", 
      "inputs": [[5972, 0], [43, 0], [44, 0]], 
      "backward_source_id": -1
    }, 
    {
      "op": "FullyConnected", 
      "param": {
        "no_bias": "False", 
        "num_hidden": "2048"
      }, 
      "name": "t126_l2_h2h", 
      "inputs": [[5938, 0], [47, 0], [48, 0]], 
      "backward_source_id": -1
    }, 
    {
      "op": "_Plus", 
      "param": {}, 
      "name": "_plus760", 
      "inputs": [[5973, 0], [5974, 0]], 
      "backward_source_id": -1
    }, 
    {
      "op": "SliceChannel", 
      "param": {
        "axis": "1", 
        "num_outputs": "4", 
        "squeeze_axis": "False"
      }, 
      "name": "t126_l2_slice", 
      "inputs": [[5975, 0]], 
      "backward_source_id": -1
    }, 
    {
      "op": "Activation", 
      "param": {"act_type": "sigmoid"}, 
      "name": "activation1903", 
      "inputs": [[5976, 3]], 
      "backward_source_id": -1
    }, 
    {
      "op": "Activation", 
      "param": {"act_type": "sigmoid"}, 
      "name": "activation1902", 
      "inputs": [[5976, 2]], 
      "backward_source_id": -1
    }, 
    {
      "op": "_Mul", 
      "param": {}, 
      "name": "_mul1140", 
      "inputs": [[5978, 0], [5936, 0]], 
      "backward_source_id": -1
    }, 
    {
      "op": "Activation", 
      "param": {"act_type": "sigmoid"}, 
      "name": "activation1900", 
      "inputs": [[5976, 0]], 
      "backward_source_id": -1
    }, 
    {
      "op": "Activation", 
      "param": {"act_type": "tanh"}, 
      "name": "activation1901", 
      "inputs": [[5976, 1]], 
      "backward_source_id": -1
    }, 
    {
      "op": "_Mul", 
      "param": {}, 
      "name": "_mul1141", 
      "inputs": [[5980, 0], [5981, 0]], 
      "backward_source_id": -1
    }, 
    {
      "op": "_Plus", 
      "param": {}, 
      "name": "_plus761", 
      "inputs": [[5979, 0], [5982, 0]], 
      "backward_source_id": -1
    }, 
    {
      "op": "Activation", 
      "param": {"act_type": "tanh"}, 
      "name": "activation1904", 
      "inputs": [[5983, 0]], 
      "backward_source_id": -1
    }, 
    {
      "op": "_Mul", 
      "param": {}, 
      "name": "_mul1142", 
      "inputs": [[5977, 0], [5984, 0]], 
      "backward_source_id": -1
    }, 
    {
      "op": "Dropout", 
      "param": {"p": "0.2"}, 
      "name": "dropout380", 
      "inputs": [[5985, 0]], 
      "backward_source_id": -1
    }, 
    {
      "op": "FullyConnected", 
      "param": {
        "no_bias": "False", 
        "num_hidden": "84"
      }, 
      "name": "fullyconnected126", 
      "inputs": [[5986, 0], [63, 0], [64, 0]], 
      "backward_source_id": -1
    }, 
    {
      "op": "null", 
      "param": {}, 
      "name": "label/126", 
      "inputs": [], 
      "backward_source_id": -1
    }, 
    {
      "op": "SoftmaxOutput", 
      "param": {
        "grad_scale": "1", 
        "ignore_label": "-1", 
        "multi_output": "False", 
        "normalization": "null", 
        "out_grad": "False", 
        "preserve_shape": "False", 
        "use_ignore": "False"
      }, 
      "name": "t126_sm", 
      "inputs": [[5987, 0], [5988, 0]], 
      "backward_source_id": -1
    }, 
    {
      "op": "null", 
      "param": {}, 
      "name": "data/127", 
      "inputs": [], 
      "backward_source_id": -1
    }, 
    {
      "op": "Embedding", 
      "param": {
        "input_dim": "84", 
        "output_dim": "256"
      }, 
      "name": "t127_embed", 
      "inputs": [[5990, 0], [1, 0]], 
      "backward_source_id": -1
    }, 
    {
      "op": "FullyConnected", 
      "param": {
        "no_bias": "False", 
        "num_hidden": "2048"
      }, 
      "name": "t127_l0_i2h", 
      "inputs": [[5991, 0], [3, 0], [4, 0]], 
      "backward_source_id": -1
    }, 
    {
      "op": "FullyConnected", 
      "param": {
        "no_bias": "False", 
        "num_hidden": "2048"
      }, 
      "name": "t127_l0_h2h", 
      "inputs": [[5957, 0], [7, 0], [8, 0]], 
      "backward_source_id": -1
    }, 
    {
      "op": "_Plus", 
      "param": {}, 
      "name": "_plus762", 
      "inputs": [[5992, 0], [5993, 0]], 
      "backward_source_id": -1
    }, 
    {
      "op": "SliceChannel", 
      "param": {
        "axis": "1", 
        "num_outputs": "4", 
        "squeeze_axis": "False"
      }, 
      "name": "t127_l0_slice", 
      "inputs": [[5994, 0]], 
      "backward_source_id": -1
    }, 
    {
      "op": "Activation", 
      "param": {"act_type": "sigmoid"}, 
      "name": "activation1908", 
      "inputs": [[5995, 3]], 
      "backward_source_id": -1
    }, 
    {
      "op": "Activation", 
      "param": {"act_type": "sigmoid"}, 
      "name": "activation1907", 
      "inputs": [[5995, 2]], 
      "backward_source_id": -1
    }, 
    {
      "op": "_Mul", 
      "param": {}, 
      "name": "_mul1143", 
      "inputs": [[5997, 0], [5955, 0]], 
      "backward_source_id": -1
    }, 
    {
      "op": "Activation", 
      "param": {"act_type": "sigmoid"}, 
      "name": "activation1905", 
      "inputs": [[5995, 0]], 
      "backward_source_id": -1
    }, 
    {
      "op": "Activation", 
      "param": {"act_type": "tanh"}, 
      "name": "activation1906", 
      "inputs": [[5995, 1]], 
      "backward_source_id": -1
    }, 
    {
      "op": "_Mul", 
      "param": {}, 
      "name": "_mul1144", 
      "inputs": [[5999, 0], [6000, 0]], 
      "backward_source_id": -1
    }, 
    {
      "op": "_Plus", 
      "param": {}, 
      "name": "_plus763", 
      "inputs": [[5998, 0], [6001, 0]], 
      "backward_source_id": -1
    }, 
    {
      "op": "Activation", 
      "param": {"act_type": "tanh"}, 
      "name": "activation1909", 
      "inputs": [[6002, 0]], 
      "backward_source_id": -1
    }, 
    {
      "op": "_Mul", 
      "param": {}, 
      "name": "_mul1145", 
      "inputs": [[5996, 0], [6003, 0]], 
      "backward_source_id": -1
    }, 
    {
      "op": "Dropout", 
      "param": {"p": "0.2"}, 
      "name": "dropout381", 
      "inputs": [[6004, 0]], 
      "backward_source_id": -1
    }, 
    {
      "op": "FullyConnected", 
      "param": {
        "no_bias": "False", 
        "num_hidden": "2048"
      }, 
      "name": "t127_l1_i2h", 
      "inputs": [[6005, 0], [23, 0], [24, 0]], 
      "backward_source_id": -1
    }, 
    {
      "op": "FullyConnected", 
      "param": {
        "no_bias": "False", 
        "num_hidden": "2048"
      }, 
      "name": "t127_l1_h2h", 
      "inputs": [[5971, 0], [27, 0], [28, 0]], 
      "backward_source_id": -1
    }, 
    {
      "op": "_Plus", 
      "param": {}, 
      "name": "_plus764", 
      "inputs": [[6006, 0], [6007, 0]], 
      "backward_source_id": -1
    }, 
    {
      "op": "SliceChannel", 
      "param": {
        "axis": "1", 
        "num_outputs": "4", 
        "squeeze_axis": "False"
      }, 
      "name": "t127_l1_slice", 
      "inputs": [[6008, 0]], 
      "backward_source_id": -1
    }, 
    {
      "op": "Activation", 
      "param": {"act_type": "sigmoid"}, 
      "name": "activation1913", 
      "inputs": [[6009, 3]], 
      "backward_source_id": -1
    }, 
    {
      "op": "Activation", 
      "param": {"act_type": "sigmoid"}, 
      "name": "activation1912", 
      "inputs": [[6009, 2]], 
      "backward_source_id": -1
    }, 
    {
      "op": "_Mul", 
      "param": {}, 
      "name": "_mul1146", 
      "inputs": [[6011, 0], [5969, 0]], 
      "backward_source_id": -1
    }, 
    {
      "op": "Activation", 
      "param": {"act_type": "sigmoid"}, 
      "name": "activation1910", 
      "inputs": [[6009, 0]], 
      "backward_source_id": -1
    }, 
    {
      "op": "Activation", 
      "param": {"act_type": "tanh"}, 
      "name": "activation1911", 
      "inputs": [[6009, 1]], 
      "backward_source_id": -1
    }, 
    {
      "op": "_Mul", 
      "param": {}, 
      "name": "_mul1147", 
      "inputs": [[6013, 0], [6014, 0]], 
      "backward_source_id": -1
    }, 
    {
      "op": "_Plus", 
      "param": {}, 
      "name": "_plus765", 
      "inputs": [[6012, 0], [6015, 0]], 
      "backward_source_id": -1
    }, 
    {
      "op": "Activation", 
      "param": {"act_type": "tanh"}, 
      "name": "activation1914", 
      "inputs": [[6016, 0]], 
      "backward_source_id": -1
    }, 
    {
      "op": "_Mul", 
      "param": {}, 
      "name": "_mul1148", 
      "inputs": [[6010, 0], [6017, 0]], 
      "backward_source_id": -1
    }, 
    {
      "op": "Dropout", 
      "param": {"p": "0.2"}, 
      "name": "dropout382", 
      "inputs": [[6018, 0]], 
      "backward_source_id": -1
    }, 
    {
      "op": "FullyConnected", 
      "param": {
        "no_bias": "False", 
        "num_hidden": "2048"
      }, 
      "name": "t127_l2_i2h", 
      "inputs": [[6019, 0], [43, 0], [44, 0]], 
      "backward_source_id": -1
    }, 
    {
      "op": "FullyConnected", 
      "param": {
        "no_bias": "False", 
        "num_hidden": "2048"
      }, 
      "name": "t127_l2_h2h", 
      "inputs": [[5985, 0], [47, 0], [48, 0]], 
      "backward_source_id": -1
    }, 
    {
      "op": "_Plus", 
      "param": {}, 
      "name": "_plus766", 
      "inputs": [[6020, 0], [6021, 0]], 
      "backward_source_id": -1
    }, 
    {
      "op": "SliceChannel", 
      "param": {
        "axis": "1", 
        "num_outputs": "4", 
        "squeeze_axis": "False"
      }, 
      "name": "t127_l2_slice", 
      "inputs": [[6022, 0]], 
      "backward_source_id": -1
    }, 
    {
      "op": "Activation", 
      "param": {"act_type": "sigmoid"}, 
      "name": "activation1918", 
      "inputs": [[6023, 3]], 
      "backward_source_id": -1
    }, 
    {
      "op": "Activation", 
      "param": {"act_type": "sigmoid"}, 
      "name": "activation1917", 
      "inputs": [[6023, 2]], 
      "backward_source_id": -1
    }, 
    {
      "op": "_Mul", 
      "param": {}, 
      "name": "_mul1149", 
      "inputs": [[6025, 0], [5983, 0]], 
      "backward_source_id": -1
    }, 
    {
      "op": "Activation", 
      "param": {"act_type": "sigmoid"}, 
      "name": "activation1915", 
      "inputs": [[6023, 0]], 
      "backward_source_id": -1
    }, 
    {
      "op": "Activation", 
      "param": {"act_type": "tanh"}, 
      "name": "activation1916", 
      "inputs": [[6023, 1]], 
      "backward_source_id": -1
    }, 
    {
      "op": "_Mul", 
      "param": {}, 
      "name": "_mul1150", 
      "inputs": [[6027, 0], [6028, 0]], 
      "backward_source_id": -1
    }, 
    {
      "op": "_Plus", 
      "param": {}, 
      "name": "_plus767", 
      "inputs": [[6026, 0], [6029, 0]], 
      "backward_source_id": -1
    }, 
    {
      "op": "Activation", 
      "param": {"act_type": "tanh"}, 
      "name": "activation1919", 
      "inputs": [[6030, 0]], 
      "backward_source_id": -1
    }, 
    {
      "op": "_Mul", 
      "param": {}, 
      "name": "_mul1151", 
      "inputs": [[6024, 0], [6031, 0]], 
      "backward_source_id": -1
    }, 
    {
      "op": "Dropout", 
      "param": {"p": "0.2"}, 
      "name": "dropout383", 
      "inputs": [[6032, 0]], 
      "backward_source_id": -1
    }, 
    {
      "op": "FullyConnected", 
      "param": {
        "no_bias": "False", 
        "num_hidden": "84"
      }, 
      "name": "fullyconnected127", 
      "inputs": [[6033, 0], [63, 0], [64, 0]], 
      "backward_source_id": -1
    }, 
    {
      "op": "null", 
      "param": {}, 
      "name": "label/127", 
      "inputs": [], 
      "backward_source_id": -1
    }, 
    {
      "op": "SoftmaxOutput", 
      "param": {
        "grad_scale": "1", 
        "ignore_label": "-1", 
        "multi_output": "False", 
        "normalization": "null", 
        "out_grad": "False", 
        "preserve_shape": "False", 
        "use_ignore": "False"
      }, 
      "name": "t127_sm", 
      "inputs": [[6034, 0], [6035, 0]], 
      "backward_source_id": -1
    }, 
    {
      "op": "null", 
      "param": {}, 
      "name": "data/128", 
      "inputs": [], 
      "backward_source_id": -1
    }, 
    {
      "op": "Embedding", 
      "param": {
        "input_dim": "84", 
        "output_dim": "256"
      }, 
      "name": "t128_embed", 
      "inputs": [[6037, 0], [1, 0]], 
      "backward_source_id": -1
    }, 
    {
      "op": "FullyConnected", 
      "param": {
        "no_bias": "False", 
        "num_hidden": "2048"
      }, 
      "name": "t128_l0_i2h", 
      "inputs": [[6038, 0], [3, 0], [4, 0]], 
      "backward_source_id": -1
    }, 
    {
      "op": "FullyConnected", 
      "param": {
        "no_bias": "False", 
        "num_hidden": "2048"
      }, 
      "name": "t128_l0_h2h", 
      "inputs": [[6004, 0], [7, 0], [8, 0]], 
      "backward_source_id": -1
    }, 
    {
      "op": "_Plus", 
      "param": {}, 
      "name": "_plus768", 
      "inputs": [[6039, 0], [6040, 0]], 
      "backward_source_id": -1
    }, 
    {
      "op": "SliceChannel", 
      "param": {
        "axis": "1", 
        "num_outputs": "4", 
        "squeeze_axis": "False"
      }, 
      "name": "t128_l0_slice", 
      "inputs": [[6041, 0]], 
      "backward_source_id": -1
    }, 
    {
      "op": "Activation", 
      "param": {"act_type": "sigmoid"}, 
      "name": "activation1923", 
      "inputs": [[6042, 3]], 
      "backward_source_id": -1
    }, 
    {
      "op": "Activation", 
      "param": {"act_type": "sigmoid"}, 
      "name": "activation1922", 
      "inputs": [[6042, 2]], 
      "backward_source_id": -1
    }, 
    {
      "op": "_Mul", 
      "param": {}, 
      "name": "_mul1152", 
      "inputs": [[6044, 0], [6002, 0]], 
      "backward_source_id": -1
    }, 
    {
      "op": "Activation", 
      "param": {"act_type": "sigmoid"}, 
      "name": "activation1920", 
      "inputs": [[6042, 0]], 
      "backward_source_id": -1
    }, 
    {
      "op": "Activation", 
      "param": {"act_type": "tanh"}, 
      "name": "activation1921", 
      "inputs": [[6042, 1]], 
      "backward_source_id": -1
    }, 
    {
      "op": "_Mul", 
      "param": {}, 
      "name": "_mul1153", 
      "inputs": [[6046, 0], [6047, 0]], 
      "backward_source_id": -1
    }, 
    {
      "op": "_Plus", 
      "param": {}, 
      "name": "_plus769", 
      "inputs": [[6045, 0], [6048, 0]], 
      "backward_source_id": -1
    }, 
    {
      "op": "Activation", 
      "param": {"act_type": "tanh"}, 
      "name": "activation1924", 
      "inputs": [[6049, 0]], 
      "backward_source_id": -1
    }, 
    {
      "op": "_Mul", 
      "param": {}, 
      "name": "_mul1154", 
      "inputs": [[6043, 0], [6050, 0]], 
      "backward_source_id": -1
    }, 
    {
      "op": "Dropout", 
      "param": {"p": "0.2"}, 
      "name": "dropout384", 
      "inputs": [[6051, 0]], 
      "backward_source_id": -1
    }, 
    {
      "op": "FullyConnected", 
      "param": {
        "no_bias": "False", 
        "num_hidden": "2048"
      }, 
      "name": "t128_l1_i2h", 
      "inputs": [[6052, 0], [23, 0], [24, 0]], 
      "backward_source_id": -1
    }, 
    {
      "op": "FullyConnected", 
      "param": {
        "no_bias": "False", 
        "num_hidden": "2048"
      }, 
      "name": "t128_l1_h2h", 
      "inputs": [[6018, 0], [27, 0], [28, 0]], 
      "backward_source_id": -1
    }, 
    {
      "op": "_Plus", 
      "param": {}, 
      "name": "_plus770", 
      "inputs": [[6053, 0], [6054, 0]], 
      "backward_source_id": -1
    }, 
    {
      "op": "SliceChannel", 
      "param": {
        "axis": "1", 
        "num_outputs": "4", 
        "squeeze_axis": "False"
      }, 
      "name": "t128_l1_slice", 
      "inputs": [[6055, 0]], 
      "backward_source_id": -1
    }, 
    {
      "op": "Activation", 
      "param": {"act_type": "sigmoid"}, 
      "name": "activation1928", 
      "inputs": [[6056, 3]], 
      "backward_source_id": -1
    }, 
    {
      "op": "Activation", 
      "param": {"act_type": "sigmoid"}, 
      "name": "activation1927", 
      "inputs": [[6056, 2]], 
      "backward_source_id": -1
    }, 
    {
      "op": "_Mul", 
      "param": {}, 
      "name": "_mul1155", 
      "inputs": [[6058, 0], [6016, 0]], 
      "backward_source_id": -1
    }, 
    {
      "op": "Activation", 
      "param": {"act_type": "sigmoid"}, 
      "name": "activation1925", 
      "inputs": [[6056, 0]], 
      "backward_source_id": -1
    }, 
    {
      "op": "Activation", 
      "param": {"act_type": "tanh"}, 
      "name": "activation1926", 
      "inputs": [[6056, 1]], 
      "backward_source_id": -1
    }, 
    {
      "op": "_Mul", 
      "param": {}, 
      "name": "_mul1156", 
      "inputs": [[6060, 0], [6061, 0]], 
      "backward_source_id": -1
    }, 
    {
      "op": "_Plus", 
      "param": {}, 
      "name": "_plus771", 
      "inputs": [[6059, 0], [6062, 0]], 
      "backward_source_id": -1
    }, 
    {
      "op": "Activation", 
      "param": {"act_type": "tanh"}, 
      "name": "activation1929", 
      "inputs": [[6063, 0]], 
      "backward_source_id": -1
    }, 
    {
      "op": "_Mul", 
      "param": {}, 
      "name": "_mul1157", 
      "inputs": [[6057, 0], [6064, 0]], 
      "backward_source_id": -1
    }, 
    {
      "op": "Dropout", 
      "param": {"p": "0.2"}, 
      "name": "dropout385", 
      "inputs": [[6065, 0]], 
      "backward_source_id": -1
    }, 
    {
      "op": "FullyConnected", 
      "param": {
        "no_bias": "False", 
        "num_hidden": "2048"
      }, 
      "name": "t128_l2_i2h", 
      "inputs": [[6066, 0], [43, 0], [44, 0]], 
      "backward_source_id": -1
    }, 
    {
      "op": "FullyConnected", 
      "param": {
        "no_bias": "False", 
        "num_hidden": "2048"
      }, 
      "name": "t128_l2_h2h", 
      "inputs": [[6032, 0], [47, 0], [48, 0]], 
      "backward_source_id": -1
    }, 
    {
      "op": "_Plus", 
      "param": {}, 
      "name": "_plus772", 
      "inputs": [[6067, 0], [6068, 0]], 
      "backward_source_id": -1
    }, 
    {
      "op": "SliceChannel", 
      "param": {
        "axis": "1", 
        "num_outputs": "4", 
        "squeeze_axis": "False"
      }, 
      "name": "t128_l2_slice", 
      "inputs": [[6069, 0]], 
      "backward_source_id": -1
    }, 
    {
      "op": "Activation", 
      "param": {"act_type": "sigmoid"}, 
      "name": "activation1933", 
      "inputs": [[6070, 3]], 
      "backward_source_id": -1
    }, 
    {
      "op": "Activation", 
      "param": {"act_type": "sigmoid"}, 
      "name": "activation1932", 
      "inputs": [[6070, 2]], 
      "backward_source_id": -1
    }, 
    {
      "op": "_Mul", 
      "param": {}, 
      "name": "_mul1158", 
      "inputs": [[6072, 0], [6030, 0]], 
      "backward_source_id": -1
    }, 
    {
      "op": "Activation", 
      "param": {"act_type": "sigmoid"}, 
      "name": "activation1930", 
      "inputs": [[6070, 0]], 
      "backward_source_id": -1
    }, 
    {
      "op": "Activation", 
      "param": {"act_type": "tanh"}, 
      "name": "activation1931", 
      "inputs": [[6070, 1]], 
      "backward_source_id": -1
    }, 
    {
      "op": "_Mul", 
      "param": {}, 
      "name": "_mul1159", 
      "inputs": [[6074, 0], [6075, 0]], 
      "backward_source_id": -1
    }, 
    {
      "op": "_Plus", 
      "param": {}, 
      "name": "_plus773", 
      "inputs": [[6073, 0], [6076, 0]], 
      "backward_source_id": -1
    }, 
    {
      "op": "Activation", 
      "param": {"act_type": "tanh"}, 
      "name": "activation1934", 
      "inputs": [[6077, 0]], 
      "backward_source_id": -1
    }, 
    {
      "op": "_Mul", 
      "param": {}, 
      "name": "_mul1160", 
      "inputs": [[6071, 0], [6078, 0]], 
      "backward_source_id": -1
    }, 
    {
      "op": "Dropout", 
      "param": {"p": "0.2"}, 
      "name": "dropout386", 
      "inputs": [[6079, 0]], 
      "backward_source_id": -1
    }, 
    {
      "op": "FullyConnected", 
      "param": {
        "no_bias": "False", 
        "num_hidden": "84"
      }, 
      "name": "fullyconnected128", 
      "inputs": [[6080, 0], [63, 0], [64, 0]], 
      "backward_source_id": -1
    }, 
    {
      "op": "null", 
      "param": {}, 
      "name": "label/128", 
      "inputs": [], 
      "backward_source_id": -1
    }, 
    {
      "op": "SoftmaxOutput", 
      "param": {
        "grad_scale": "1", 
        "ignore_label": "-1", 
        "multi_output": "False", 
        "normalization": "null", 
        "out_grad": "False", 
        "preserve_shape": "False", 
        "use_ignore": "False"
      }, 
      "name": "t128_sm", 
      "inputs": [[6081, 0], [6082, 0]], 
      "backward_source_id": -1
    }
  ], 
  "arg_nodes": [
    0, 
    1, 
    3, 
    4, 
    6, 
    7, 
    8, 
    14, 
    23, 
    24, 
    26, 
    27, 
    28, 
    34, 
    43, 
    44, 
    46, 
    47, 
    48, 
    54, 
    63, 
    64, 
    66, 
    68, 
    113, 
    115, 
    160, 
    162, 
    207, 
    209, 
    254, 
    256, 
    301, 
    303, 
    348, 
    350, 
    395, 
    397, 
    442, 
    444, 
    489, 
    491, 
    536, 
    538, 
    583, 
    585, 
    630, 
    632, 
    677, 
    679, 
    724, 
    726, 
    771, 
    773, 
    818, 
    820, 
    865, 
    867, 
    912, 
    914, 
    959, 
    961, 
    1006, 
    1008, 
    1053, 
    1055, 
    1100, 
    1102, 
    1147, 
    1149, 
    1194, 
    1196, 
    1241, 
    1243, 
    1288, 
    1290, 
    1335, 
    1337, 
    1382, 
    1384, 
    1429, 
    1431, 
    1476, 
    1478, 
    1523, 
    1525, 
    1570, 
    1572, 
    1617, 
    1619, 
    1664, 
    1666, 
    1711, 
    1713, 
    1758, 
    1760, 
    1805, 
    1807, 
    1852, 
    1854, 
    1899, 
    1901, 
    1946, 
    1948, 
    1993, 
    1995, 
    2040, 
    2042, 
    2087, 
    2089, 
    2134, 
    2136, 
    2181, 
    2183, 
    2228, 
    2230, 
    2275, 
    2277, 
    2322, 
    2324, 
    2369, 
    2371, 
    2416, 
    2418, 
    2463, 
    2465, 
    2510, 
    2512, 
    2557, 
    2559, 
    2604, 
    2606, 
    2651, 
    2653, 
    2698, 
    2700, 
    2745, 
    2747, 
    2792, 
    2794, 
    2839, 
    2841, 
    2886, 
    2888, 
    2933, 
    2935, 
    2980, 
    2982, 
    3027, 
    3029, 
    3074, 
    3076, 
    3121, 
    3123, 
    3168, 
    3170, 
    3215, 
    3217, 
    3262, 
    3264, 
    3309, 
    3311, 
    3356, 
    3358, 
    3403, 
    3405, 
    3450, 
    3452, 
    3497, 
    3499, 
    3544, 
    3546, 
    3591, 
    3593, 
    3638, 
    3640, 
    3685, 
    3687, 
    3732, 
    3734, 
    3779, 
    3781, 
    3826, 
    3828, 
    3873, 
    3875, 
    3920, 
    3922, 
    3967, 
    3969, 
    4014, 
    4016, 
    4061, 
    4063, 
    4108, 
    4110, 
    4155, 
    4157, 
    4202, 
    4204, 
    4249, 
    4251, 
    4296, 
    4298, 
    4343, 
    4345, 
    4390, 
    4392, 
    4437, 
    4439, 
    4484, 
    4486, 
    4531, 
    4533, 
    4578, 
    4580, 
    4625, 
    4627, 
    4672, 
    4674, 
    4719, 
    4721, 
    4766, 
    4768, 
    4813, 
    4815, 
    4860, 
    4862, 
    4907, 
    4909, 
    4954, 
    4956, 
    5001, 
    5003, 
    5048, 
    5050, 
    5095, 
    5097, 
    5142, 
    5144, 
    5189, 
    5191, 
    5236, 
    5238, 
    5283, 
    5285, 
    5330, 
    5332, 
    5377, 
    5379, 
    5424, 
    5426, 
    5471, 
    5473, 
    5518, 
    5520, 
    5565, 
    5567, 
    5612, 
    5614, 
    5659, 
    5661, 
    5706, 
    5708, 
    5753, 
    5755, 
    5800, 
    5802, 
    5847, 
    5849, 
    5894, 
    5896, 
    5941, 
    5943, 
    5988, 
    5990, 
    6035, 
    6037, 
    6082
  ], 
  "heads": [
    [67, 0], 
    [114, 0], 
    [161, 0], 
    [208, 0], 
    [255, 0], 
    [302, 0], 
    [349, 0], 
    [396, 0], 
    [443, 0], 
    [490, 0], 
    [537, 0], 
    [584, 0], 
    [631, 0], 
    [678, 0], 
    [725, 0], 
    [772, 0], 
    [819, 0], 
    [866, 0], 
    [913, 0], 
    [960, 0], 
    [1007, 0], 
    [1054, 0], 
    [1101, 0], 
    [1148, 0], 
    [1195, 0], 
    [1242, 0], 
    [1289, 0], 
    [1336, 0], 
    [1383, 0], 
    [1430, 0], 
    [1477, 0], 
    [1524, 0], 
    [1571, 0], 
    [1618, 0], 
    [1665, 0], 
    [1712, 0], 
    [1759, 0], 
    [1806, 0], 
    [1853, 0], 
    [1900, 0], 
    [1947, 0], 
    [1994, 0], 
    [2041, 0], 
    [2088, 0], 
    [2135, 0], 
    [2182, 0], 
    [2229, 0], 
    [2276, 0], 
    [2323, 0], 
    [2370, 0], 
    [2417, 0], 
    [2464, 0], 
    [2511, 0], 
    [2558, 0], 
    [2605, 0], 
    [2652, 0], 
    [2699, 0], 
    [2746, 0], 
    [2793, 0], 
    [2840, 0], 
    [2887, 0], 
    [2934, 0], 
    [2981, 0], 
    [3028, 0], 
    [3075, 0], 
    [3122, 0], 
    [3169, 0], 
    [3216, 0], 
    [3263, 0], 
    [3310, 0], 
    [3357, 0], 
    [3404, 0], 
    [3451, 0], 
    [3498, 0], 
    [3545, 0], 
    [3592, 0], 
    [3639, 0], 
    [3686, 0], 
    [3733, 0], 
    [3780, 0], 
    [3827, 0], 
    [3874, 0], 
    [3921, 0], 
    [3968, 0], 
    [4015, 0], 
    [4062, 0], 
    [4109, 0], 
    [4156, 0], 
    [4203, 0], 
    [4250, 0], 
    [4297, 0], 
    [4344, 0], 
    [4391, 0], 
    [4438, 0], 
    [4485, 0], 
    [4532, 0], 
    [4579, 0], 
    [4626, 0], 
    [4673, 0], 
    [4720, 0], 
    [4767, 0], 
    [4814, 0], 
    [4861, 0], 
    [4908, 0], 
    [4955, 0], 
    [5002, 0], 
    [5049, 0], 
    [5096, 0], 
    [5143, 0], 
    [5190, 0], 
    [5237, 0], 
    [5284, 0], 
    [5331, 0], 
    [5378, 0], 
    [5425, 0], 
    [5472, 0], 
    [5519, 0], 
    [5566, 0], 
    [5613, 0], 
    [5660, 0], 
    [5707, 0], 
    [5754, 0], 
    [5801, 0], 
    [5848, 0], 
    [5895, 0], 
    [5942, 0], 
    [5989, 0], 
    [6036, 0], 
    [6083, 0]
  ]
}